dqn_q_net_2000.pth (torch, 119452 bytes, 6 tensors)

net.0.weight f4 [128, 160]
0	0xbf1cd6e0	-0.61265373
1	0xbe07b496	-0.13252482
2	0x3de116de	0.1099069
3	0xbd28577e	-0.041099064
4	0xbe136fa2	-0.14398053
5	0xbd8533d6	-0.065040275
6	0x3d4f3502	0.05058766
7	0x3edf3231	0.4359298
8	0x3e06c4d8	0.13161027
9	0x3e2e754d	0.17036934
10	0x3e72bb16	0.2370418
11	0xbde8a3fd	-0.11359403
12	0x3ddc316c	0.10751614
13	0xbe63d82c	-0.22250432
14	0x3ddbc898	0.107316196
15	0xbdf3237e	-0.11872004
16	0x3debeec8	0.11520153
17	0x3e3a21c5	0.18176945
18	0x3d50ab15	0.050944407
19	0xbf0a4dc7	-0.5402493
20	0xbe97ea48	-0.2967093
21	0xbf1c4071	-0.6103583
22	0x3dfc88b3	0.12330761
23	0x3bca5917	0.006175171
24	0x3df8624b	0.12128123
25	0x3e9b4521	0.3032618
26	0x3e448692	0.1919196
27	0xbe91e697	-0.2849624
28	0x3e3a408f	0.1818869
29	0x3e7215ed	0.23641177
30	0x3ebf84f5	0.37406126
31	0xbd5d4ae7	-0.05402651
32	0x3f16398d	0.58681566
33	0x3de2aa61	0.110676534
34	0xbe1155d2	-0.14192894
35	0xbcda009a	-0.026611615
36	0x3e5926d2	0.21206215
37	0x3de507a8	0.11183101
38	0xbe12adf9	-0.14324178
39	0xbea6a88e	-0.32550472
40	0xbd1e793c	-0.038689837
41	0xbf03776d	-0.51354104
42	0x3e3848a4	0.1799646
43	0x3dae887e	0.085221276
44	0xbf528278	-0.8223033
45	0xbe4c2bad	-0.19938536
46	0xbe4636f6	-0.19356903
47	0x3d1adced	0.037808347
48	0x3ec4188a	0.38299972
49	0x3e933859	0.28753927
50	0xbd88da79	-0.06682295
51	0xbeeee503	-0.46659097
52	0xbeb074a1	-0.3446398
53	0xbee7dede	-0.45287222
54	0x3ebbfacd	0.36714783
55	0xbddd7c81	-0.10814763
56	0x3e1a0888	0.15042317
57	0x3e817e4b	0.25291666
58	0xba9058da	-0.0011012808
59	0xbd0d1113	-0.03444011
60	0x3f47630c	0.7788551
61	0xbf898213	-1.074282
62	0xbf91447b	-1.1349024
63	0x3e6a75c8	0.22896492
64	0x3f24d0ec	0.6438129
65	0x3e19fb4d	0.1503727
66	0xbf130941	-0.57435995
67	0x3f076c91	0.52900034
68	0xbcf6e2e0	-0.03013748
69	0xbf8ca0c3	-1.098656
70	0x3f38b595	0.7215207
71	0x3e9bad90	0.30405855
72	0xbea6f46b	-0.3260835
73	0xbdc7d14e	-0.097567186
74	0x3f3c0e54	0.73459363
75	0xbeb5748c	-0.3544048
76	0xbfa22f88	-1.2670755
77	0x3e8ba252	0.27272278
78	0xbca3ceb6	-0.019996028
79	0x3d9d25e2	0.07673241
80	0xc0138e29	-2.3055518
81	0xbe472e8e	-0.19451353
82	0xbccc1050	-0.024910122
83	0xbe900de2	-0.28135592
84	0xbe34bdeb	-0.17650573
85	0x3ebedaec	0.372764
86	0xc0d1b123	-6.552873
87	0xbf1347bb	-0.57531327
88	0xbf6e5491	-0.9309779
89	0x40cdc768	6.4305916
90	0xc0250bb2	-2.5788388
91	0xbeadebdc	-0.3396901
92	0xbf7966a4	-0.9742224
93	0x3f944af6	1.1585376
94	0x3f989452	1.1920264
95	0xbf1f30ae	-0.62183654
96	0x3f215acb	0.63029164
97	0x3d98259e	0.0742905
98	0xbefda7da	-0.49542123
99	0xbf7cafa0	-0.9870548
100	0xbef6c878	-0.4819982
101	0x3ecef466	0.40420836
102	0xbf071cad	-0.5277813
103	0xc00203d4	-2.0314837
104	0xc0183c9c	-2.3786993
105	0xbf896872	-1.0734999
106	0xbf8ad402	-1.084595
107	0xbf2be0dc	-0.67139983
108	0xbf9a4ccc	-1.2054687
109	0xbdc0db86	-0.09416871
110	0x3d188053	0.037231755
111	0xbd9382f3	-0.07202711
112	0xbf082056	-0.5317434
113	0xbee3f6a2	-0.44524103
114	0xbd69dbdd	-0.057094444
115	0x3ee2c763	0.44292745
116	0xbefde58b	-0.4958919
117	0x3ed88173	0.42286262
118	0xbfabb383	-1.3414158
119	0xbd615c32	-0.055019565
120	0x3f115197	0.5676512
121	0xbfb52078	-1.4150534
122	0xc0473086	-3.1123366
123	0x3dcb6317	0.09931009
124	0xbeb5293a	-0.35383016
125	0x3db61f7d	0.08892725
126	0xbffec7b2	-1.9904692
127	0xbf4d9f69	-0.80321366
128	0x3f92734b	1.1441435
129	0x3f320301	0.69535834
130	0xbf1e27e5	-0.61779624
131	0x3c8d41f4	0.017243363
132	0xbe8c2eb0	-0.2737937
133	0xbf9cdbb5	-1.2254549
134	0xbf7c77b6	-0.98620164
135	0x3ea12799	0.31475523
136	0x3e5a7f1a	0.21337548
137	0x3f88d001	1.0688478
138	0x3f826d52	1.0189612
139	0xbefd7747	-0.49505064
140	0xc0220be7	-2.5319765
141	0xbee31faa	-0.44360095
142	0x3f513f9e	0.817377
143	0xbf164136	-0.58693254
144	0xc072882b	-3.789561
145	0xbf05e4b8	-0.5230212
146	0x3ce5ce61	0.02805251
147	0x3e809030	0.25110006
148	0xbff51a97	-1.914874
149	0xba221333	-0.00061826705
150	0xc08f6cfe	-4.4820547
151	0xbf1860cc	-0.595227
152	0xc04d9eb3	-3.2128112
153	0x40a6e0e7	5.214954
154	0xc008ec3f	-2.1394193
155	0x3ea50905	0.32233444
156	0xc0104bb6	-2.254621
157	0x3f8733c2	1.056267
158	0x3f82ca36	1.021796
159	0x3eb72f26	0.3577816
160	0x3dc8d96d	0.09807096
161	0x3bd451d4	0.0064794812
162	0xbe68b7df	-0.22726391
163	0x3e523f18	0.20531881
164	0x3dcd46db	0.1002328
165	0xbe3d9978	-0.18515575
166	0x3dd01d79	0.101618715
167	0xbf3c99a1	-0.7367192
168	0x3b5960ce	0.0033169272
169	0xbe2561d2	-0.16150597
170	0x3b13fa85	0.0022579741
171	0x3e04c7cf	0.12966846
172	0x3cd005e2	0.02539343
173	0x3e950e2a	0.2911237
174	0xbe2df543	-0.16988091
175	0xbc5e55f9	-0.013570302
176	0x3d8e1893	0.06938281
177	0x3e60f571	0.21968628
178	0x3dd8f12b	0.10592874
179	0x3ca66a50	0.020314366
180	0x3e646126	0.22302684
181	0x3e5b7451	0.2143109
182	0xbd94c3b7	-0.07263892
183	0x3e6bd136	0.23029026
184	0xbd82c708	-0.063856184
185	0xbe3dfedc	-0.18554252
186	0xbe428bca	-0.18998638
187	0xbe2bdb05	-0.16782768
188	0x3e0101b6	0.12598309
189	0xbdd2d15e	-0.1029384
190	0xbf422eee	-0.7585286
191	0x3e619c13	0.22032194
192	0x3d00b9c0	0.031427145
193	0x3d748b97	0.059703436
194	0x3e6fd41b	0.23420756
195	0xbd39cd57	-0.045361843
196	0x3c9822c2	0.018571261
197	0x3e525f1d	0.20544095
198	0xbdb3a835	-0.08772317
199	0x3f1bb192	0.60817826
200	0xbe15ef56	-0.1464208
201	0xbd844539	-0.06458516
202	0x3d3f4353	0.046695065
203	0xbec38494	-0.38187087
204	0xbe29724e	-0.1654751
205	0xbfb786af	-1.4337977
206	0xbf31be5b	-0.69431084
207	0xbfa779b3	-1.3084015
208	0x3df0f168	0.117647946
209	0x3eae1503	0.34000406
210	0x3d0cdfff	0.034393307
211	0xbf13164d	-0.57455903
212	0x3e639d86	0.22228059
213	0x3f51459a	0.8174683
214	0x3f5a0260	0.85159874
215	0x3eca718e	0.3953976
216	0x3e74867f	0.23879431
217	0xbd9e7d64	-0.0773876
218	0xbe0c2002	-0.13684085
219	0xbde0fd61	-0.10985828
220	0x4014f77b	2.327605
221	0x407062d2	3.7560315
222	0xbf035c02	-0.5131227
223	0xbe249646	-0.1607295
224	0x3e8a8b5a	0.27059442
225	0xbe7a97cd	-0.2447197
226	0xbf63b69a	-0.889505
227	0xbe441f61	-0.19152595
228	0xbda256ef	-0.079267375
229	0xbe32fd97	-0.1747955
230	0x3e247a52	0.16062286
231	0xbefa40ba	-0.48877507
232	0xbec95a12	-0.3932653
233	0x3e4bfe30	0.19921184
234	0x3e8fa455	0.28055063
235	0xbf51d2de	-0.8196238
236	0xbfcf7a79	-1.6209251
237	0xbea64806	-0.32476825
238	0xbe69c5a5	-0.22829302
239	0x3fb7597e	1.4324186
240	0xc0140b0e	-2.3131747
241	0xbdf78024	-0.12084988
242	0xbcaca8b7	-0.021076543
243	0x4000aba9	2.0104773
244	0xbfd1549d	-1.6353947
245	0xbe0bc4e6	-0.1364933
246	0x3ebf46f6	0.37358826
247	0x3ffff260	1.9995842
248	0xbfc7e0a5	-1.5615431
249	0x3ef571e1	0.47938445
250	0xbf84e45f	-1.0382193
251	0x3f534cb5	0.8253892
252	0xc01e8b0e	-2.4772372
253	0xc06dc518	-3.7151546
254	0xbe43ee6b	-0.19133918
255	0xbe2ab466	-0.16670379

net.0.bias f4 [128]
0	0xbca537c4	-0.020168193
1	0x3db08f15	0.08621041
2	0xbcb0e61d	-0.021594102
3	0x3d096f5d	0.03355347
4	0xbd612d00	-0.054974556
5	0x3c15178e	0.009099854
6	0xbdb14118	-0.08654994
7	0xbd5591e2	-0.052141078
8	0xbdad7704	-0.08469966
9	0xbda86a7a	-0.08223434
10	0x3d8c8841	0.06861926
11	0x3da9b024	0.08285549
12	0xbc99ad53	-0.018759405
13	0x3d5f90e1	0.054581527
14	0xbd483763	-0.048880946
15	0x3ca7431a	0.020417739
16	0xbe1ad8ea	-0.15121809
17	0x3d84997f	0.064745896
18	0x3d6a13a2	0.05714763
19	0x3cd2a2c4	0.025712378
20	0x3de6a97f	0.112627976
21	0xbcb8c8f0	-0.022556752
22	0x3d226386	0.039645694
23	0x3d509996	0.05092772
24	0x3d8ffb63	0.0703037
25	0xbc173af5	-0.009230365
26	0xbd22a768	-0.039710432
27	0x3ccb3b80	0.024808645
28	0xbe2b8543	-0.16750054
29	0x3d391b4f	0.04519206
30	0x3d956061	0.072937734
31	0x3dfc1546	0.12308745
32	0xbab7a5dc	-0.0014011222
33	0x3dc0af0c	0.094083875
34	0x3ddf124b	0.10892161
35	0xbe2ad390	-0.16682267
36	0xbe44202c	-0.19152898
37	0xbc9329ed	-0.017964328
38	0x3dfaa5cd	0.12238655
39	0xbcf3af96	-0.029746812
40	0x3d07e48d	0.033176947
41	0x3dcc8517	0.099863224
42	0x3dbd5ef8	0.092466295
43	0x3d9a374a	0.07530077
44	0x3d8f61db	0.07001086
45	0x3d32a11e	0.043610685
46	0x3d5d3866	0.054008864
47	0xbe13b8e8	-0.14426005
48	0x3d9f995d	0.077929236
49	0x3dbdf268	0.09274751
50	0xbd25e122	-0.040497907
51	0x3a8ed7f0	0.0010898095
52	0xbd45ed5d	-0.04832207
53	0xbdbef367	-0.09323769
54	0xbd83262b	-0.06403764
55	0x3b825dbc	0.003978459
56	0xbc03950f	-0.008031144
57	0xbd0cb8be	-0.03435587
58	0xbdbf3527	-0.0933631
59	0xbd3a0f19	-0.045424554
60	0x3d5e5986	0.054284595
61	0x3c388ab4	0.011263538
62	0xbce06414	-0.027391471
63	0xbd9a5c4c	-0.075371355
64	0x3d01aa82	0.03165675
65	0xbc142f87	-0.0090445345
66	0x3e140647	0.1445552
67	0xbe32074a	-0.17385593
68	0x3d3cd036	0.046097003
69	0x3d5b4b8c	0.053538844
70	0xbda5f878	-0.08104032
71	0x3d2e346d	0.042530466
72	0x3d6446fe	0.055731766
73	0x3b83c3e4	0.0040211547
74	0x3d69fd2f	0.05712622
75	0x3d89514a	0.06704958
76	0xbd2f5cc9	-0.042813096
77	0xbd02b7db	-0.03191362
78	0x3cb458ed	0.02201506
79	0xbde59042	-0.112091556
80	0x3cc94967	0.024571134
81	0xbde5d47b	-0.11222168
82	0x3d64991a	0.05581007
83	0x3c0053f8	0.00783252
84	0xbcb7ea11	-0.022450479
85	0x3ce32c52	0.027731095
86	0xbd44c434	-0.048038676
87	0xbdb14262	-0.0865524
88	0xbdcf6a5b	-0.101277076
89	0x3b410037	0.002944959
90	0x3d96f43e	0.07370804
91	0x3db0abcc	0.08626518
92	0xbdadd9b0	-0.08488786
93	0xbda9cb21	-0.08290697
94	0xbe49e92f	-0.19717859
95	0xbde27edb	-0.11059352
96	0xbe01ddf5	-0.12682326
97	0x3df53820	0.119735956
98	0x3cf155b5	0.029459814
99	0x3d30e2a7	0.043184903
100	0xb8aee7ec	-8.3401654e-05
101	0x3d228fae	0.039687805
102	0xbcd0a71b	-0.025470307
103	0x3dd5510e	0.104158506
104	0x3de7f989	0.11326892
105	0xbdb5b55d	-0.08872483
106	0xbdcd5fdb	-0.100280486
107	0xbd019320	-0.03163445
108	0x3d4f87c0	0.05066657
109	0x3c81f30b	0.015862962
110	0xbc2bceea	-0.010486344
111	0x3d7707db	0.060310226
112	0x3cd15a95	0.025555888
113	0xbd0bb3ea	-0.034107126
114	0xbdf20301	-0.11816979
115	0x3c8c68e1	0.017139854
116	0x3bd53fe6	0.0065078614
117	0xbd822e6e	-0.06356512
118	0xbd24d142	-0.040238626
119	0x3d870aee	0.065938815
120	0xbc264c91	-0.010150091
121	0xbd10824c	-0.03528051
122	0x3dcdb7d1	0.10044826
123	0x3c91638e	0.017747667
124	0x3dbca5fa	0.09211345
125	0x3cec4d54	0.028845467
126	0x3c837a25	0.016049454
127	0x3df393f6	0.11893456

net.2.weight f4 [64, 128]
0	0x3e8a39e9	0.26997307
1	0x3ead10fd	0.33802024
2	0x3d90ea21	0.070759065
3	0xbd4e882d	-0.050422836
4	0xbd6b1bd2	-0.05739958
5	0xbe868dc3	-0.2628003
6	0xbf0a9768	-0.5413728
7	0xbecdcf9b	-0.40197453
8	0xbe1c9687	-0.15291797
9	0xbf0fa110	-0.56105137
10	0x3e16f47a	0.14741698
11	0xbd2ff13a	-0.04295466
12	0xbdb681f8	-0.08911508
13	0xbc2748b3	-0.010210204
14	0x3d3f99cd	0.046777535
15	0xbd708f05	-0.058730144
16	0x3f455486	0.770821
17	0xbd4a224f	-0.049349125
18	0x3e0d426f	0.13794874
19	0x3dd97eeb	0.10619911
20	0xbdcc493b	-0.09974905
21	0x3e64c70f	0.2234156
22	0xbd6cd565	-0.057820696
23	0xbe1ced52	-0.15324906
24	0x3bdd282b	0.006749173
25	0x3d53a8b3	0.051674556
26	0xbf07d8e7	-0.5306534
27	0xbe88d442	-0.2672444
28	0x3db173d3	0.0866467
29	0x3ea5d482	0.32388693
30	0xbeb5bd08	-0.35495782
31	0xbd894632	-0.06702842
32	0xbda2f201	-0.07956315
33	0xbe24142c	-0.1602332
34	0xbe8c4400	-0.2739563
35	0xbeb13c27	-0.34616205
36	0xbdd978e1	-0.10618759
37	0xbd158a58	-0.036508888
38	0x3b4b2794	0.0030998932
39	0x3eaf3f91	0.34228185
40	0xbdd73eba	-0.10510011
41	0x3bfaf7e3	0.007658945
42	0x3dba7a8d	0.09105406
43	0xbbd83ab6	-0.0065987958
44	0x3dfd7f97	0.123778515
45	0xbd825b5f	-0.06365084
46	0xbd06fd9c	-0.032956704
47	0x3eaa2261	0.33229354
48	0x3e9d1826	0.30682486
49	0xbde3622d	-0.1110271
50	0x3f4fe972	0.81215584
51	0xbe199172	-0.14996889
52	0xbec46f69	-0.3836625
53	0xbeaf2a9d	-0.342122
54	0x37926718	1.7452563e-05
55	0x3d4ef4f7	0.050526585
56	0xbebb6535	-0.36600652
57	0x3e1069e9	0.14102902
58	0x3ca0d497	0.01963262
59	0xbd97f433	-0.07419624
60	0xbda1c01d	-0.07897971
61	0xbecb5e2a	-0.3972028
62	0xbd356083	-0.044281494
63	0x3d89efba	0.06735177
64	0x3de2e6b0	0.110791564
65	0x3ecb8ce3	0.39755926
66	0xbaf05c11	-0.0018337985
67	0xbef697eb	-0.4816278
68	0xbd9e204f	-0.07721006
69	0xbd9f354f	-0.0777384
70	0x3de620a4	0.112366945
71	0xbc13147d	-0.008977053
72	0xbd8a92bc	-0.067662686
73	0x3cf60fba	0.030036796
74	0x3d98bc0c	0.07457742
75	0xbcdbc762	-0.026828472
76	0xbed3dd3a	-0.4137972
77	0xbbc3f960	-0.0059806556
78	0xbe136d3d	-0.1439714
79	0xbe3cf4c3	-0.18452744
80	0xbde3f096	-0.111298725
81	0xbe9fcf8e	-0.3121304
82	0xbd9f8927	-0.077898316
83	0xbe4f4d27	-0.20244275
84	0xbd170cd8	-0.036877483
85	0x3d1c9eb4	0.03823729
86	0xbd2d9b1b	-0.04238425
87	0xbf19d092	-0.6008388
88	0x3e1172f7	0.14204012
89	0x3eaa4d5c	0.33262146
90	0xbe737e54	-0.23778659
91	0xbc63f5a2	-0.013913544
92	0x3e4a364f	0.1974728
93	0xbe15bce3	-0.14622836
94	0x3e6f7b87	0.23386966
95	0x3c8ce630	0.017199606
96	0x3e7f3caa	0.24925485
97	0xbe0c891b	-0.13724177
98	0xbd66d2a4	-0.056353226
99	0xbd48d054	-0.049026802
100	0xbca88204	-0.020569809
101	0x3de84713	0.11341681
102	0x3d71d69a	0.05904255
103	0xbc997ed0	-0.018737227
104	0xbd1c1536	-0.038106166
105	0xbddad553	-0.106852196
106	0xbd8fc3ad	-0.07019744
107	0xbd3f20df	-0.046662208
108	0x3c94f09d	0.01818114
109	0xbe8f3f70	-0.27978086
110	0xbec96d59	-0.39341238
111	0x3d4afb8f	0.04955631
112	0xbdda8aa3	-0.10670974
113	0x3d0765cc	0.033056065
114	0x3e24d057	0.160951
115	0x3dc9323b	0.09824034
116	0xbf2b5610	-0.66928196
117	0x3eaff4eb	0.34366545
118	0xbf1def49	-0.61693245
119	0xbc662039	-0.014045768
120	0xbdc124f2	-0.09430875
121	0xbf15e4c4	-0.58552194
122	0xbd4b2857	-0.049599018
123	0x3e0f4f6d	0.13995142
124	0x3e0e68a1	0.139071
125	0xbf056f70	-0.52123165
126	0x3db08c73	0.086205386
127	0x3d31bc0b	0.043392222
128	0xbf0e432d	-0.5557125
129	0xbe8b8f1c	-0.2725762
130	0x3c96516e	0.018349376
131	0x3e3bd587	0.18343173
132	0x3cdc2c9c	0.02687674
133	0xbd83c53b	-0.06434103
134	0x3c889897	0.016674323
135	0x3e939fd6	0.28832883
136	0x3dbd55e0	0.09244895
137	0x3e92a4af	0.2864127
138	0xbda964cf	-0.08271181
139	0xbdf76e0a	-0.12081535
140	0xbe2abb21	-0.16672947
141	0x3e052ef5	0.13006194
142	0x3c73a639	0.014871174
143	0x3d637fdd	0.05554186
144	0xbeae9541	-0.34098247
145	0x3c9f46fc	0.019443028
146	0x3e2795f8	0.16365802
147	0x3d913106	0.070894286
148	0xbd427351	-0.047473256
149	0x3e7b4f3e	0.24541947
150	0xbe224738	-0.1584748
151	0xbe51a603	-0.20473485
152	0xbbf9c96d	-0.007622889
153	0xbe4e5217	-0.20148502
154	0x3e54bfda	0.2077631
155	0x3bd88ee7	0.006608832
156	0xbd48390c	-0.04888253
157	0xbdd7bee5	-0.10534457
158	0x3dc57c4d	0.09642849
159	0x3e47fc5b	0.1952986
160	0xbce0e863	-0.02745456
161	0x3d6e3613	0.058157038
162	0x3e62299c	0.22086185
163	0x3e8c0ce6	0.2735359
164	0x3e026e9a	0.12737504
165	0x3d789670	0.060690343
166	0x3d551ebd	0.052031267
167	0xbf0ef4ac	-0.5584209
168	0x3bedc60c	0.007256275
169	0x3d9bc77d	0.07606409
170	0xbe086c0f	-0.13322471
171	0x3c16235e	0.009163706
172	0xbdaa2d5d	-0.083094336
173	0xbda69748	-0.08134323
174	0x3ceb608b	0.028732559
175	0x3d4c7510	0.049916327
176	0xbdf5b6d6	-0.11997764
177	0xbd225bc3	-0.039638292
178	0xbed91051	-0.4239526
179	0x3d83b381	0.06430722
180	0x3e5eb66f	0.2174928
181	0x3e5b0bfa	0.21391287
182	0x3e4065b2	0.18788794
183	0xbda1f15c	-0.07907364
184	0x3dcc89e4	0.09987238
185	0xbe6ca7ee	-0.23110935
186	0xbd1f5f1c	-0.038909063
187	0xbe38a5e0	-0.18032026
188	0xbd9382dd	-0.072026946
189	0xbdfb1004	-0.12258914
190	0x3ecc6b8b	0.399258
191	0xbcfcd1e2	-0.030861799
192	0xbe468925	-0.19388254
193	0xbf06d52f	-0.5266904
194	0x3d24dcbc	0.04024957
195	0x3e9b3e92	0.30321175
196	0xbe6bee8f	-0.23040222
197	0xbdfc2dcd	-0.12313423
198	0xbeb1800b	-0.34668002
199	0xbd18d32c	-0.037310764
200	0x3da92388	0.0825873
201	0x3e9d159f	0.30680558
202	0xbcef8a7d	-0.029240841
203	0x3c4f0f36	0.012637904
204	0x3f18bd90	0.5966425
205	0x3dd9a1dc	0.10626575
206	0x3dd64d0c	0.10463914
207	0x3ddd5144	0.10806516
208	0xbe28d1d9	-0.164863
209	0xbd9b300c	-0.075775236
210	0xbd24864e	-0.040167145
211	0xbdf78cf5	-0.12087432
212	0x3d833ae0	0.06407714
213	0x3d2ccf77	0.04219004
214	0xbdae617f	-0.0851469
215	0x3ee7a8db	0.45246014
216	0xbeb31e7b	-0.34984192
217	0xbe6238a5	-0.2209192
218	0xbe85d26b	-0.261371
219	0xbe9d1419	-0.30679396
220	0xbe99893e	-0.2998752
221	0xbd26d302	-0.040728576
222	0xbdaba3bf	-0.083808415
223	0xbe96828d	-0.29396477
224	0xbe6058fe	-0.21908948
225	0x3d07da34	0.03316708
226	0x3db1d634	0.08683434
227	0xbc791bab	-0.01520435
228	0xbd8f51d0	-0.06998026
229	0x3c351267	0.011051751
230	0x3e3c4f6a	0.18389669
231	0xbc931ec4	-0.017959006
232	0x3dcc3306	0.099706694
233	0xbe1282b8	-0.14307678
234	0x3d864934	0.06556931
235	0xbf0d4aed	-0.5519245
236	0x3d535ecd	0.05160408
237	0x3e04a54f	0.12953685
238	0xbc84806e	-0.016174521
239	0xbd702f4a	-0.05863885
240	0x3edb5e9c	0.4284562
241	0xbdab2c26	-0.0835803
242	0xbd2db726	-0.042410992
243	0x3d41da7d	0.047327507
244	0x3f5163b0	0.81792736
245	0xbd9c906e	-0.07644735
246	0x3d57f12d	0.052720238
247	0xbd9710c6	-0.07376246
248	0xbe06394e	-0.13107798
249	0x3d828350	0.06372702
250	0xbe1f932d	-0.15583487
251	0xbe9eb5ad	-0.30997983
252	0x3d98993e	0.07451104
253	0x3e864411	0.26223806
254	0xbcb2d79c	-0.021831326
255	0xbddc1a54	-0.10747209

net.2.bias f4 [64]
0	0xbbcaa09c	-0.006183697
1	0x3cc6c1e8	0.024262384
2	0x3d196af6	0.03745552
3	0x3e00ffda	0.125976
4	0x3de292cd	0.11063156
5	0x3de159fc	0.11003491
6	0xbdc3320a	-0.095310286
7	0xbd6639c3	-0.05620743
8	0x3c90db21	0.017682614
9	0x3dc90a2b	0.098163925
10	0x3e33c27a	0.17554656
11	0x3c8b75ba	0.01702391
12	0xbdd0f79b	-0.10203477
13	0xbc742458	-0.014901243
14	0xbc131a74	-0.008978475
15	0xbb48f153	-0.0030661419
16	0x3d94cc22	0.07265498
17	0xbcf0f1e7	-0.029412223
18	0x3d3dd8c1	0.04634929
19	0x3d2b8163	0.04187144
20	0x3dea6316	0.114446804
21	0x3ca91f42	0.020644788
22	0x3c2b540f	0.010457053
23	0xbdd6d890	-0.10490525
24	0xbd660bfd	-0.056163777
25	0xbc428061	-0.011871428
26	0x3cef4385	0.029207
27	0x3d78e1f0	0.060762346
28	0xbda7569e	-0.08170818
29	0xbd757176	-0.059922658
30	0x3d02a521	0.03189576
31	0xbe02af69	-0.12762226
32	0xbc4068e3	-0.011743757
33	0x3d985aae	0.07439171
34	0x3d20d86f	0.039268907
35	0x3db9f5d6	0.090800926
36	0xbd9c638d	-0.07636175
37	0x3c5b99aa	0.013403336
38	0x3de195fd	0.11014936
39	0x3dc1cd87	0.09463029
40	0xbcaa2dd2	-0.020773802
41	0x3d89d33c	0.06729743
42	0xbdc47a76	-0.0959367
43	0x3da50d3f	0.08059167
44	0x3dbc6af6	0.09200089
45	0xbd9c0382	-0.076178566
46	0x3cd6d792	0.026225839
47	0xbb3bf3c5	-0.0028679234
48	0xbda776fc	-0.08176991
49	0xbd4c3637	-0.04985639
50	0x3cc4c2af	0.024018614
51	0xbd981c51	-0.07427276
52	0x3ce22067	0.027603341
53	0x3db1cdbb	0.08681818
54	0x3cd7d482	0.026346449
55	0x3ce0996c	0.027416907
56	0x3d91a244	0.07111028
57	0x3cb80230	0.02246198
58	0x3cf5ad6c	0.02998992
59	0x3d2aba41	0.04168153
60	0xbdd41c30	-0.10356939
61	0x3d15b03a	0.036545016
62	0xbd13baf8	-0.03606698
63	0xbdc27c19	-0.09496326

net.4.weight f4 [5, 64]
0	0x3e74d7e7	0.23910485
1	0xbc29d3f6	-0.010365477
2	0x3e88db53	0.2672983
3	0xbecec22c	-0.40382516
4	0x3d9ba6a6	0.07600145
5	0xbe10f21c	-0.14154857
6	0xbf264f68	-0.64964914
7	0x3d4c9d24	0.04995455
8	0xbe06ce0c	-0.13164538
9	0x3eabad4a	0.33530647
10	0xbecddee1	-0.40209106
11	0xbe217a04	-0.15769202
12	0x3daa021e	0.08301185
13	0xbe987568	-0.29777074
14	0xbd4dd63c	-0.050253138
15	0x3e6d1901	0.2315407
16	0xbed6ff16	-0.4199149
17	0xbd87dfe7	-0.06634503
18	0x3ea78ef5	0.32726255
19	0x3eef865f	0.46782205
20	0x3e89a1d6	0.26881284
21	0x3e287477	0.16450678
22	0xbc2b9d9a	-0.010474587
23	0xbdfd47e6	-0.12367229
24	0xbd52d42f	-0.051471885
25	0xbe138371	-0.1440561
26	0x3e4654eb	0.19368331
27	0x3e7f11cb	0.24909131
28	0x3e408d88	0.1880399
29	0x3e11db1c	0.1424374
30	0x3ccfd155	0.025368372
31	0x3e4489a8	0.19193137
32	0xbee8dead	-0.45482388
33	0x3e7900a7	0.24316655
34	0xbd0f80be	-0.035034887
35	0xbe3e2ce1	-0.18571807
36	0xbdd04ae8	-0.10170537
37	0x3d37e095	0.044891912
38	0x3cd279e2	0.025692884
39	0x3f05316a	0.52028525
40	0x3eda1b0d	0.42598763
41	0x3e81a17e	0.2531852
42	0x3dc60a0c	0.09669885
43	0x3dc8fc8e	0.09813796
44	0xbe3148cf	-0.1731293
45	0x3da52c08	0.08065039
46	0x3c9796e7	0.018504573
47	0x3e421e53	0.1895688
48	0x3ee1838e	0.4404568
49	0xbe0fb048	-0.1403209
50	0xbe7cd1ef	-0.24689458
51	0xbefaafe9	-0.48962334
52	0x3e4759af	0.19467805
53	0xbe3a6f64	-0.18206555
54	0xbe4e9a37	-0.20176016
55	0x3e766702	0.24062732
56	0x3dd56683	0.10419943
57	0x3e9e401c	0.30908287
58	0xbe287d5c	-0.16454071
59	0xbf2e6a4c	-0.68130946
60	0xbdbe831e	-0.09302352
61	0xbd8c81c4	-0.06860688
62	0x3e6d27d3	0.23159723
63	0x3dc37834	0.09544411
64	0xbc2fd88e	-0.010732783
65	0x3dcae11f	0.0990622
66	0x3e2320d0	0.15930486
67	0xbd4147f7	-0.04718777
68	0x3d7064f1	0.058690015
69	0x3e021912	0.12704876
70	0x3e8fb968	0.2807114
71	0xbdeedda6	-0.1166337
72	0xbe68a207	-0.22718059
73	0x3e8daef5	0.27672544
74	0xbe9ff43b	-0.3124102
75	0x3df044d4	0.11731878
76	0x3bfe6f74	0.007764751
77	0x3e2f6ce5	0.17131384
78	0x3d098d93	0.03358228
79	0xbddcae92	-0.10775484
80	0xbd12eb46	-0.035868905
81	0xbdf28544	-0.11841825
82	0xbf01dc45	-0.5072673
83	0x3e762bc9	0.2404014
84	0x3e3c85c9	0.1841041
85	0x3f10ed25	0.56611854
86	0xbe4aa2ee	-0.19788715
87	0x3d0e3914	0.034722403
88	0xbd813a11	-0.063099034
89	0xbe4a04f7	-0.19728456
90	0xbda72527	-0.08161383
91	0xbe750210	-0.23926568
92	0x3c80fdad	0.015745962
93	0x3f1c76cf	0.6111879
94	0x3e23a855	0.15982182
95	0x3dcf2e38	0.101162374
96	0xbf406f7e	-0.75170124
97	0xbd91199a	-0.07084961
98	0x3d6cb79d	0.057792295
99	0xbdca07a5	-0.09864739
100	0x3e747bf9	0.23875417
101	0xbd05617c	-0.03256367
102	0xbc22979c	-0.009923842
103	0x3dd96760	0.1061542
104	0xbf13211a	-0.57472384
105	0x3e629c54	0.22129947
106	0xbdb338f4	-0.08751097
107	0x3e665b7a	0.22495833
108	0x3df0771e	0.1174147
109	0x3d1d7108	0.038437873
110	0xbc0b0609	-0.008485326
111	0xba394054	-0.00070667756
112	0x3dad29e8	0.084552586
113	0x3e805f4c	0.25072706
114	0x3e0b01da	0.13574925
115	0x3e87744d	0.26455918
116	0xbdd5d5c8	-0.10441166
117	0xbe8cecb6	-0.27524346
118	0x3ed3f275	0.41395918
119	0x3e6ba547	0.23012267
120	0x3eab96de	0.3351354
121	0xbf79bb8d	-0.97551805
122	0x3d63af23	0.055586945
123	0xbe3e741d	-0.18598981
124	0xbc0a6030	-0.008445784
125	0x3e361bc9	0.17784037
126	0x3dcef70d	0.10105715
127	0x3cff19b0	0.031140178
128	0x3e8ca340	0.274683
129	0x3c28963b	0.010289724
130	0x3e65582c	0.22396916
131	0xbe188d96	-0.14897761
132	0xbe5c0cd8	-0.21489275
133	0xbd863c3a	-0.06554456
134	0x3d650432	0.055912204
135	0xbc3290db	-0.010898794
136	0x3e6b9729	0.23006882
137	0xbe0e2dea	-0.13884702
138	0xbe9d1d75	-0.30686536
139	0x3e2beb17	0.16788898
140	0x3ca30430	0.019899458
141	0x3e687875	0.227022
142	0xbe739e86	-0.2379094
143	0x3e965aef	0.29366252
144	0xbec45d48	-0.38352418
145	0x3eb37727	0.35051844
146	0xbece0b2b	-0.40242895
147	0xbd21756f	-0.039418634
148	0xbe1d161b	-0.15340464
149	0xbf2f36eb	-0.68443173
150	0x3ebbf96e	0.36713737
151	0xbd67f99b	-0.056634527
152	0x3d1cdafe	0.038294785
153	0x3ea2551a	0.31705552
154	0x3e3aaba4	0.18229538
155	0xbda92d3c	-0.08260581
156	0x3e81955d	0.25309268
157	0x3cd18fda	0.02558129
158	0x3e479f9c	0.1949448
159	0x3edaf03a	0.42761403
160	0x3d87eb88	0.06636721
161	0x3e8aaca9	0.27084854
162	0xbe0f6fbb	-0.14007466
163	0xbe9083ae	-0.28225464
164	0x3e4d3293	0.20038824
165	0xbddf59f9	-0.10905833
166	0xbe2e9d52	-0.170522
167	0x3dee38ea	0.11631949
168	0xbefd65a8	-0.4949162
169	0xbe77583d	-0.24154754
170	0x3db32fd0	0.08749354
171	0x3e58a4a4	0.21156555
172	0xbe05b827	-0.1305853
173	0xbd091c93	-0.033474516
174	0xbd122664	-0.035681143
175	0x3e919f5c	0.28441894
176	0xbf0e71b7	-0.55642265
177	0x3df38530	0.11890638
178	0xbd31397d	-0.043267716
179	0xbdeb9485	-0.11502937
180	0x3e80bda4	0.25144684
181	0xbec4b9ec	-0.38423097
182	0x3e83f1db	0.2577046
183	0xbd80a40b	-0.06281289
184	0x3e64471c	0.22292751
185	0xbd888d37	-0.066675596
186	0x3e4cc8f3	0.19998531
187	0xbd3160b5	-0.043305118
188	0xbd1f7a44	-0.03893496
189	0x3dc9660c	0.09833917
190	0x3e7a2989	0.24429907
191	0xbd9c72c1	-0.07639075
192	0xbe08d090	-0.1336081
193	0x3e5b7540	0.21431446
194	0x3dce4679	0.10072035
195	0xbe8e3d78	-0.27781272
196	0x3e2da5c5	0.16957767
197	0x3e180e8b	0.14849298
198	0xb744de00	-1.1734199e-05
199	0x3c64b8b0	0.013960049
200	0xbe595ce9	-0.21226849
201	0x3d974cf7	0.07387727
202	0xbe383a37	-0.17990957
203	0x3e7166ce	0.23574373
204	0x3b20fac0	0.002456352
205	0x3e15f311	0.14643504
206	0xbfa2ec64	-1.2728391
207	0x3e44abd1	0.19206168
208	0x3db139bb	0.08653589
209	0xbe70f43c	-0.23530668
210	0xbf1b0e81	-0.60569006
211	0x3e808977	0.25104877
212	0x3e34da01	0.17661287
213	0xbe5a085d	-0.21292253
214	0xbdce15da	-0.100627616
215	0x3ca5f1f3	0.020256972
216	0xbcf9a446	-0.03047384
217	0xbe031ac9	-0.12803186
218	0x3e7c8fc3	0.24664216
219	0x3c2710e0	0.010196894
220	0xbc6573da	-0.014004672
221	0xbebbe32b	-0.36696753
222	0xbca7fa0f	-0.02050498
223	0xbe83c229	-0.2573407
224	0x3e763e38	0.24047172
225	0xbc10fe8f	-0.008849754
226	0x3e74dfb1	0.23913456
227	0x3e025472	0.12727526
228	0x3ea348c9	0.31891468
229	0xbdb5181e	-0.088424906
230	0x3e513422	0.20430043
231	0xbcbcffcd	-0.023071194
232	0x3e091663	0.13387446
233	0x3e608af1	0.21928002
234	0xbdb0043e	-0.08594559
235	0x3e845526	0.25846213
236	0x3d4e1a28	0.050317913
237	0xbcf1d5f8	-0.029520974
238	0xbd805830	-0.062668204
239	0xbc8617ce	-0.016368773
240	0xbdc815a6	-0.09769754
241	0x3ccafad5	0.02477781
242	0x3dc8b520	0.09800172
243	0x3e613075	0.21991141
244	0xbd860ac8	-0.06545025
245	0xbeae7767	-0.34075472
246	0xbea22bb6	-0.31673974
247	0x3ac0a9ca	0.0014699039
248	0x3c8ce4fe	0.017199036
249	0x3f24176f	0.64098257
250	0xbbad342f	-0.005285762
251	0xbf0786ef	-0.5294027
252	0xbab7b873	-0.0014016762
253	0x3e831875	0.25604597
254	0x3dac0391	0.08399118
255	0xba3d3520	-0.0007217694

net.4.bias f4 [5]
0	0x3cc70044	0.024292119
1	0x3b908a50	0.0044110194
2	0xbe35b96d	-0.17746516
3	0xbd0a328d	-0.033739615
4	0x3e33fb46	0.17576322
