Configuration 2/ppo_critic_continuous.pth (torch, 120148 bytes, 5 tensors)

net.0.weight f4 [128, 98]
00000000: 9608 f03a 5b0a 3cbd d0ed bf3d b773 ee3c
00000010: bb57 87bd bda6 043e bf84 633d 1aa6 5e3d
00000020: 40d4 333d 21d5 9e3d a2af e5bd 2912 903d
00000030: bba6 e13d 664c 283e c6be 5abd 1e50 253e
00000040: b561 4e3e 3aa5 303e efe5 523d c770 ec3d
00000050: fc34 5d3e 3ab8 84be f9f5 98be 65d0 6cbe
00000060: 8458 b83c 9310 ea3d a2ca 113e 709d d6bd
00000070: b76b 63be 7c32 97be 155d 8dbe 037c 30be
00000080: f6ac 50bc 5c02 8ebe 6a96 12bd c42d 1b3d
00000090: f219 71bd c901 b5bd e767 223c a3df afbe
000000a0: bfae b2be f3b3 24be d4f2 e5bd 0df6 18be
000000b0: 8621 61be 321c 0ebe c433 393d 5dcc 5abd
000000c0: 2943 91bd bf57 6fbd d18d 493c 6af3 0c3d
000000d0: 9696 14bd afcd b53d 2a03 cd3d 317f 953e
000000e0: 402a 70bc 9419 27be 01d6 2fbd d87a d0bc
000000f0: 0eaa 3b3e fea9 ecbd 553b 803e ad42 d4bd
00000100: e524 18bd d37d 573e 1488 42be 524e 913d
00000110: d4bb 5d3d 437b db3d dafb c83d b6f0 d4bd
00000120: 9c7f b43d 180b d8bd 78b6 033e 3d01 10bd
00000130: 865f c63d feb5 183e 1e69 e2bd fd33 703e
00000140: 4444 77be d393 7a3d 709c 82bd a135 2e3d
00000150: 75c1 1a3d 0127 483e e8c9 b3bd 2096 13bd
00000160: 0453 a5be 56c4 1c3d 146f c43d 2afc 0abe
00000170: 949a 093d 0b55 133e e501 31be 50a3 02be
00000180: f255 9fbe 9080 6a3d 100a 90be fee6 b1bd
00000190: 621d 83bc b551 50bd 2aad f8bc eb41 a53c
000001a0: 4578 ca3d 38be 9fbc fdb1 c6bd 4b02 a13d
000001b0: 56e8 86bd e4e7 063e da65 9b3c 893e 4ebe
000001c0: 5693 c03d 46e2 bd3d c7ec 2fbd e3c2 a6bb
000001d0: 434e ec3c 2be3 b63d ed4d 8a3d 321a f53d
000001e0: f1e4 0cbe a08d 8bbe 8d4a c43d 383b 24be
000001f0: c710 ba3d f74a 243e e91b 99bc c2a8 30bd
00000200: 7428 95be 61e5 5fbe a0a1 22bd 712b a3bd
00000210: 5791 4bbe 18f3 1abe 79ec 2bbe 2cb7 08be
00000220: 5a59 14be aee3 c6bd 0a4e b2bd 0422 d5bc
00000230: 82ff d83c a05c ad3c 538c 1d3c d191 eebd
00000240: 726c 24be cc46 26bb 9fb6 94bd 211e a9bd
00000250: 3d59 c2bd 9362 31bd 7181 90bd 1d79 dcbd
00000260: 0cfe 01be 16e0 0dbc af5b 5e3d 496a 713d
00000270: 62ba e4bc 7a08 44bd 426a babd e78f 3abe
00000280: 0aa3 20be 9f1c af3d 23de bcbd 7543 edbd
00000290: 4588 ff3d 5757 3bbe 3a29 29bc d6f0 1abe
000002a0: 22b3 2b3e c210 1bbd f422 71be fba9 20bd
000002b0: 53a3 06be d987 a43d b4d6 c13c d639 2b3e
000002c0: e572 003d 2d46 593d 430e 11bb 705a 4a3c
000002d0: 3fc1 353e 4e32 b6bd cc7d 88bd 066f 643e
000002e0: 34b0 683d b22c 923c 6e2b 533d 53fd 293d
000002f0: a34a 883d f61e a93d cbf5 3dbd b4b3 8c3d
00000300: 5c17 4b3d 30bb 8a3e bb5f d3bd def0 f83d
00000310: 58ab e83a 856d ba3d 2d5d 76bd ae91 7a3d
00000320: 67ba 943d 775c c5bd 674a c53d 6e05 abbd
00000330: 891b bfbd 091f 9ebd 13ea dabc c366 cebd
00000340: 2fd3 463d 9bad ffbb 877d 943d e4f8 83bd
00000350: 8c12 34be b0f5 0e3c 40e2 52bd 2479 debc
00000360: ad67 53bc 6623 143c 1755 82bd 4ad7 68be
00000370: 529b 8b3e cbc2 15be 4d8e 74bd 86ba 4a3d
00000380: 3dc1 6a3d 4fc6 0ebd 03fd 62be 2a96 a2be
00000390: 89c0 88be ac31 10be 3b87 90be 64e8 783d
000003a0: fa8b 37be a9a6 aabe 93ea a7be 5bcd 88be
000003b0: 34c5 8ebe 0847 25be 540e 1dbe f472 4cbd
000003c0: 67a3 39be 8c38 60be b518 4abe 74c5 2dbe
000003d0: f726 1ebe cab3 573c fdc1 253d d6f5 243e
000003e0: e077 ab3d 4d00 51bc 2bb3 213d 0aff 14be
000003f0: 956d 21bd 7523 043e 65d4 083d 0ead f03a
0.0018313106 -0.045908313 0.09371531 0.029107912 -0.0660853 0.1295423 0.05554652 0.054357626
0.04390359 0.07755495 -0.1121514 0.07034714 0.110181294 0.16435394 -0.053404592 0.16143844
0.2015446 0.17250529 0.051488813 0.11544948 0.21602243 -0.25921804 -0.29875162 -0.23126371
0.022503145 0.114289425 0.14237455 -0.104792476 -0.22209059 -0.29530704 -0.27610078 -0.17234807
-0.01273655 -0.27736175 -0.035787977 0.037885442 -0.058862634 -0.08838231 0.009912468 -0.3435031
-0.34898946 -0.1608427 -0.112279564 -0.14937611 -0.21985444 -0.13877943 0.045215383 -0.053417552
-0.07092888 -0.05843329 0.012301878 0.034411825 -0.036276422 0.08877122 0.10010369 0.29198602
-0.014658511 -0.16318351 -0.0429287 -0.025449201 0.1832659 -0.11555861 0.25045267 -0.1036428
-0.03714456 0.21044092 -0.18997222 0.070950165 0.054134205 0.1071687 0.09813662 -0.103974745
0.08813402 -0.10548991 0.12862575 -0.03515743 0.096861884 0.14913175 -0.11055206 0.23457332
-0.24147135 0.061176132 -0.06377494 0.042531613 0.03778215 0.19546129 -0.08778745 -0.036031842
-0.32289898 0.038273178 0.09591499 -0.13572755 0.033594683 0.1438791 -0.17285879 -0.12757611
-0.3112026 0.057251513 -0.28132677 -0.086866364 -0.016005222 -0.050859172 -0.030356009 0.020173034
0.09886221 -0.019499883 -0.09701917 0.078617655 -0.06587283 0.13174397 0.018969465 -0.20141043
0.09403102 0.09271674 -0.042950418 -0.0050891503 0.028845912 0.089300476 0.067531444 0.11967887
-0.13759209 -0.2725649 0.09584532 -0.16038215 0.09085231 0.16044222 -0.018690066 -0.04312969
-0.29132426 -0.21864845 -0.03970492 -0.0796727 -0.19879662 -0.15131795 -0.16789426 -0.13351125
-0.1448721 -0.09711395 -0.08706291 -0.026017196 0.026489023 0.021162331 0.009615975 -0.11648906
-0.16056994 -0.0025371788 -0.07261395 -0.082577 -0.09489677 -0.0433069 -0.07055939 -0.10765288
-0.12694567 -0.008659383 0.054286655 0.058939252 -0.027920906 -0.047859646 -0.09102298 -0.18218957
-0.15687194 0.08550381 -0.09222057 -0.11585132 0.12477163 -0.18295036 -0.010324771 -0.15130934
0.16767552 -0.03785778 -0.2354849 -0.039224606 -0.13148241 0.080337234 0.023661949 0.16721281
0.031359572 0.05304544 -0.0022133745 0.012350664 0.17749499 -0.088963136 -0.06664619 0.22307977
0.056808665 0.017843578 0.05155509 0.041501354 0.06654861 0.082578585 -0.046376985 0.06870213
0.049582824 0.27095938 -0.103209935 0.12155317 0.001775126 0.091029204 -0.060147453 0.061174087
0.07262116 -0.09636777 0.09633332 -0.08350645 -0.09331424 -0.07720763 -0.026722943 -0.10078194
0.048541244 -0.007802678 0.07250505 -0.064439565 -0.175852 0.008725569 -0.0514853 -0.027157374
-0.012903136 0.009041643 -0.06363886 -0.22738376 0.27266937 -0.14625089 -0.05970602 0.04949429
0.057313193 -0.03485709 -0.22166829 -0.3175519 -0.26709393 -0.14081448 -0.28228173 0.0607685
-0.1792449 -0.33330277 -0.32796153 -0.26719174 -0.2788483 -0.16140378 -0.15337497 -0.049914315
-0.1812874 -0.21896571 -0.19735987 -0.16969854 -0.15444551 0.013165424 0.040468205 0.16109404
0.08372474 -0.012756419 0.03947751 -0.14550415 -0.039411146 0.12904151 0.03340568 0.0018362121

net.0.bias f4 [128]
00000000: 8d5a 2abc 5a54 853e a9de cf3e 4218 32bd
00000010: 869d 563d c054 813d 0d0f dd3d 51fb fe3d
00000020: 0b6f ec3d c29f 16be e652 dcbd 4079 34be
00000030: a881 9d3d 84a9 5b3e 0563 333e 207a 2e3d
00000040: 0dc6 20be f94c 4a3e a690 bc3c 7a2c ed3d
00000050: 43b7 953d 1c85 1a3d df81 67be 38d2 163e
00000060: 5b2a c73d 85a8 113d be9f eabd 3262 8a3d
00000070: 4a0e b5bd 43e1 0f3e f60f 023e d134 5cbe
00000080: aa85 533d be99 eb3d cc19 2d3e bd24 ee3d
00000090: 8859 4b3e 409f 933e c98b 683d 98d5 093e
000000a0: 64f8 a83c 5604 e73e 89bf 80bd 2830 1f3e
000000b0: bfa8 b23d 5feb d53d c598 cbbd 01f8 5dbe
000000c0: a24e e6bd 0615 82bc 7c15 c4bc b4d4 143e
000000d0: 5166 25be 9bfb a13d 96c6 003e 21c5 413e
000000e0: 2d1d 30bc e7be aa3e b2bc efbb c23e a4bd
000000f0: 6b4e 363d a593 1dbe 6721 d13d c105 0c3e
00000100: 1cb1 453e c48d 283e 1cb5 393e e1a6 bcbd
00000110: 3814 023e ae86 bc3e ea29 cf3d a3f2 9cbd
00000120: cfc2 d2bd 34df 0f3e 8b55 9bbe 546b 82bd
00000130: 7173 61b8 bd2f cd3d 4873 38bd 15ef 923e
00000140: f12f 9b3e 6d27 ee3d df70 acba 6c3c 823e
00000150: e2a7 10bc 54fe 453e 0451 493e f4a1 083e
00000160: b868 d1bd d763 0dbe 55fc f0bd 3636 64be
00000170: 8fd2 eabd 4e9a 12be 2c67 083e e95b c73d
00000180: d90d 6b3d a775 d7bc 131a 0d3e 7788 3e3e
00000190: c7fd 8a3d 5be5 a0bc 5ee6 1c3d 3854 88bc
000001a0: ea7d da3d 4de6 9a3d ecc7 773d b73a d13d
000001b0: caa7 b83e 6917 8d3e 4903 2e3d 649d c6bd
000001c0: 5621 943e 9922 ca3d d526 043e 77f4 1c3e
000001d0: df56 2f3e de70 463e bd33 ddbd 36d2 e1bd
000001e0: 310a 15be 07ee 0bbd a909 15bd f641 4a3d
000001f0: 0692 7a3d 3d44 133e c8ae 073e 64a2 223e
-0.010397566 0.26040918 0.40599564 -0.043480165 0.05239632 0.06314993 0.10793886 0.124502786
0.11544617 -0.1470938 -0.10757999 -0.17624378 0.076907456 0.21451384 0.17518242 0.042596936
-0.1570055 0.19755925 0.023018192 0.11580749 0.07310345 0.0377246 -0.22608136 0.1472863
0.097248755 0.035561103 -0.1145625 0.067570105 -0.08840616 0.14050774 0.12701401 -0.21504523
0.051641144 0.11503933 0.16904372 0.11628101 0.19858372 0.28832436 0.056773935 0.13460386
0.020626254 0.45120496 -0.062865324 0.15545714 0.08723592 0.10445284 -0.09941248 -0.21676637
-0.11245467 -0.015879165 -0.023936026 0.14534265 -0.16152312 0.07909318 0.12575755 0.18922855
-0.010749144 0.33348772 -0.0073161954 -0.080197826 0.04450838 -0.15388353 0.10211449 0.1367407
0.19305843 0.1646033 0.18135494 -0.09211517 0.12703025 0.36821502 0.10115416 -0.07663467
-0.10291063 0.14049989 -0.30338702 -0.063681275 -5.3751693e-05 0.10018871 -0.045031816 0.2869803
0.30310014 0.116286136 -0.0013156197 0.25436723 -0.008829089 0.193353 0.19659811 0.1334303
-0.10225052 -0.13807617 -0.117668785 -0.22286305 -0.11465942 -0.14316675 0.13320607 0.09734327
0.057386253 -0.026301218 0.13779478 0.18606745 0.067866854 -0.019640615 0.038305633 -0.016641721
0.106685475 0.07563458 0.060493395 0.10216277 0.36065513 0.27556923 0.0424836 -0.09697989
0.28931683 0.0986988 0.12905438 0.15327631 0.17122982 0.19378993 -0.10800884 -0.11026423
-0.14554669 -0.034162547 -0.036386166 0.04937931 0.061174415 0.143815 0.13250268 0.1588226

net.2.weight f4 [128, 128]
00000000: 1875 29be 3ec7 0abd 1238 cfbd 7ddd ad3e
00000010: b3e3 a6be ecd0 4e3e 96cf 69bc 5289 813e
00000020: ee50 863d 5580 893e bd45 733d 1d78 4c3d
00000030: 58c8 223e 3bf3 593e 9e64 ba3d acb6 e2bd
00000040: 1374 a93e 02d4 ab3d 229a 29bc f17c 9bbd
00000050: f151 0b3e ab62 46be 2915 4c3e c749 423e
00000060: 21fd ab3e 5299 093e 2bfc 383e 3b13 c33e
00000070: 4793 16be 4eae acbd d753 293e c779 8c3e
00000080: 87e8 ac3e 8ffb a13d 0d35 603d 81d6 ef3d
00000090: 2916 0a3e 71da 36be c5d3 aa3e 75ca 623e
000000a0: e0e6 c1bd 21d0 f2bd 6f8b 393e 6657 093e
000000b0: 99c9 463e 51cf 69be 2e03 623d a36e 963e
000000c0: d5d1 0b3e 7044 9d3e fa8f 003d 6967 8a3d
000000d0: bda2 983e 4b91 d03d 07f0 1a3e 04a7 8d3e
000000e0: 16b4 cd3d 89f0 b8bd 2975 663e fe05 843e
000000f0: 4ada 4f3e 30a2 a03c 6aec c03d a716 223e
00000100: 17be 51bd a388 b03d c4a6 723d 0c78 943e
00000110: fa4e b13e 1871 ed3d e117 393e f954 a53e
00000120: dfef 7c3e eb5f 323e bf57 273e f621 553e
00000130: 5b62 e63d 6377 fc3d 28b4 9d3d 91d5 083e
00000140: 088a a9bd 992a 863e 63bf febd c0d4 52bc
00000150: 2c7f 193e 52b7 e03d e006 0d3e 6ec4 903e
00000160: d56b 8d3d 7f70 8a3e 36e3 933d 7f2b a13e
00000170: 4ce5 563e 3e27 9b3e bcc9 d83d 9c9b c2bd
00000180: b38d 3a3e 58e5 3abe 7c31 ca3d 93e1 023d
00000190: cb0f 6e3e 959d 1f3e 8c3d 593d 4d54 2e3e
000001a0: 3d76 183e 9666 70be 869b 233e c556 353e
000001b0: 60ef d33c b4c6 05bd 54c8 413e 5361 23be
000001c0: ac35 f3bc 6bb8 903e 3e56 2d3d 3cfe 413e
000001d0: 3a3e 923e 3772 9e3e 96b4 52bd e724 923e
000001e0: e764 633e 8775 953e d029 513e 71b7 853e
000001f0: d103 883e fec5 a13d 018e c13b 8d9f 1f3e
00000200: d04e 08be e1de c2bd e970 47be 76e2 a83e
00000210: 7a9d 62be d5db 6a3e 488a 943c 88da 5c3e
00000220: 07ad b43c acaa 8d3e 2ad9 073d a77f 9d3c
00000230: f704 9b3e 5d3c df3d 57a3 a03c 1088 8b3d
00000240: 9b3a b43e 0bf1 303e 9b5a db3d 072a 2dbe
00000250: a6c8 8f3e aca1 73bc 5b3d 953e 57cd ac3e
00000260: c9f3 8e3e 3d31 b13d ac20 313e 3d80 9b3e
00000270: ff44 55be 8237 dabd 9665 cebb 4b97 883e
00000280: 1cce 983e 47b8 49bd 295c 20bd c0ad 933e
00000290: ca72 b63d df7a 48be d396 9a3e 4d69 2d3e
000002a0: 0942 4cbe e34b 0abe d5e1 6b3e 6798 863e
000002b0: f165 833e 052e 18be 882a a7bd bc4a 003e
000002c0: c412 393d ae0e ab3e bcd9 10bd 732c 67bb
000002d0: 2ac5 913e a8d9 383e 4031 fc37 6889 223e
000002e0: 06b5 3f3d aefe d7bc 0971 e63d df09 343e
000002f0: 4156 153e 0bf8 7a3c e8fc 5f3d 8f42 d23d
00000300: be4a d3bd 682f b73d 4352 9f3c 00b0 703e
00000310: 7297 5c3e ba21 27bc f448 2f3e 7dae 7c3e
00000320: 04cb 8d3e 5871 1c3e d043 303e 1b5e 923e
00000330: 7af1 663d 3a6b 603e 27c8 a63d 920b e83b
00000340: 883a 17bd b180 523e eddf 3cbe d03a 113e
00000350: 1167 253e 1974 023e f38f 3a3e 5251 303e
00000360: 8678 fe3d d358 873e 2bbf 173e 2676 963e
00000370: 92de 2d3e 92a9 723e df7d 433e 4949 dbbc
00000380: be03 8d3e 91d9 12be 71a5 593e 100e a23d
00000390: 50a2 8f3e 0c4e 853e 6d36 c7bd 6522 7d3e
000003a0: 0486 493e f5c0 2cbe 1c5e f53d 3c55 983e
000003b0: d97a aa3d 3519 443c ba39 873e 645a 3fbe
000003c0: 6fec 92bc 23fa 873e e486 c53d 9810 bc3d
000003d0: b0a3 603e d200 873e 25dc 653d abd4 a03e
000003e0: 0b9e 673e ec79 be3e 9dfa 593d 6553 743e
000003f0: 4b00 383e a9b1 dd3d 6bcb a3bc 7501 3f3e
-0.16548574 -0.03388142 -0.101181164 0.33958045 -0.32595596 0.20196885 -0.014270684 0.2530008
0.06558405 0.26855722 0.05939268 0.049919236 0.15896738 0.21284191 0.091012225 -0.11069998
0.3309637 0.08390047 -0.0103516895 -0.0759219 0.13605477 -0.19373576 0.19929947 0.18973456
0.3359156 0.13437393 0.18064944 0.3810061 -0.1470462 -0.084316835 0.16535889 0.2743666
0.33771154 0.07909309 0.054738093 0.11710835 0.13485016 -0.17856766 0.33364692 0.22147544
-0.09467864 -0.11856104 0.18119596 0.13412246 0.19412841 -0.22832991 0.055178814 0.29381284
0.13654263 0.30716276 0.031387307 0.06758005 0.2981166 0.101839624 0.15130626 0.27666485
0.10044114 -0.090302534 0.2250563 0.25785822 0.20298114 0.019608587 0.094200924 0.15828954
-0.051206674 0.086198114 0.05924107 0.28997838 0.34630567 0.115938365 0.18075515 0.32291391
0.24700879 0.17419402 0.16342066 0.20813736 0.112492286 0.12327459 0.07700378 0.13362719
-0.082782805 0.26204374 -0.12438848 -0.012868106 0.14989918 0.109724656 0.13772154 0.28274864
0.06905333 0.27038953 0.072210714 0.31478497 0.20985907 0.30303377 0.10585353 -0.095023364
0.18218116 -0.1825155 0.0987272 0.031953406 0.23248212 0.15587457 0.05303721 0.17024346
0.14888854 -0.23476633 0.15977296 0.17708881 0.025870979 -0.0326602 0.18924075 -0.15955095
-0.029688679 0.282657 0.042318575 0.18944639 0.285631 0.30946514 -0.05144175 0.2854378
0.2220646 0.2919123 0.20426106 0.26116517 0.26565412 0.07899092 0.0059068208 0.15588208
-0.13311315 -0.09515167 -0.19476666 0.32985276 -0.22130385 0.22935422 0.018132344 0.21567738
0.022055162 0.27669275 0.03316609 0.019225908 0.30277225 0.10900185 0.019609137 0.06813061
0.35200962 0.1727945 0.10710641 -0.16910563 0.2808277 -0.014870089 0.29148373 0.33750412
0.27920368 0.086519696 0.1729762 0.30371276 -0.20827101 -0.106551185 -0.006298731 0.26677927
0.2984475 -0.049248006 -0.03915039 0.28843498 0.08908613 -0.19578122 0.30193195 0.169347
-0.19947065 -0.13505511 0.23035367 0.2628815 0.25663713 -0.14861305 -0.08162409 0.12528509
0.045183912 0.33409637 -0.035363898 -0.0035274297 0.28470737 0.1805178 3.0063675e-05 0.15872729
0.046803497 -0.026366558 0.112520285 0.1758189 0.14583685 0.015317927 0.05468455 0.10266601
-0.1031699 0.08944589 0.019448405 0.23504639 0.21542147 -0.010200912 0.17117673 0.24675937
0.2769395 0.15277612 0.17213368 0.28587422 0.056382634 0.21915904 0.08143645 0.0070814574
-0.036921054 0.20556904 -0.18444796 0.14182591 0.16152598 0.127396 0.18218975 0.17218521
0.12425332 0.26434955 0.14819019 0.29387015 0.16979435 0.23697498 0.19090985 -0.026768344
0.27541918 -0.14340807 0.21254517 0.079128385 0.28053522 0.26036108 -0.09727178 0.24720152
0.19680029 -0.16870482 0.119808406 0.2975253 0.083242126 0.0119689 0.2641123 -0.18686825
-0.017935006 0.26558027 0.09644869 0.091828525 0.21937442 0.26367813 0.05611815 0.31412253
0.22618882 0.37202394 0.05321752 0.23859937 0.17968862 0.108249016 -0.019994458 0.186529

net.2.bias f4 [128]
00000000: 4731 f03c 73df 753d 4742 a5bd 9ba5 fb3e
00000010: 5249 093d e465 b23d f9de 7d3d 4bcb dc3e
00000020: c250 1d3d 9e14 1bbe ec01 91bd d36e 06bd
00000030: f076 d83e 9ea1 873e fb7c dd3e 09a7 913b
00000040: 8603 b7bc d44a f23e 99ac 3b3d 7aa7 eb3d
00000050: 2888 f63e 7e70 c73e 3bc8 fb3e bb05 da3e
00000060: ed1e e6bc 9e4e 9ebd 7dd5 183d b9b2 b23d
00000070: f22c 9f3c 5b4b 75bc ccae 133e 5b0e 943d
00000080: de29 d9bc a25c 9e3d 28a8 083c e56f 2b3e
00000090: ef6c b93a ee82 f4bd ef45 28bc 2199 f73c
000000a0: f9e1 d13e 77d2 6a3c 5d2a fd3e 9b53 563e
000000b0: 31b3 0e3d a5ed 9e3e a7ac 913e f29c a0bc
000000c0: 1cf4 223c 92db b53d 3e93 7d3e 9982 f6bb
000000d0: c2f5 a63e 7aea b33c 1f8d 86bd 29f7 d63c
000000e0: c9e4 f73e 397e 753d 3f90 273e 420f e83c
000000f0: 186f 17bd 72cd e53e 3774 443c 4f99 e43e
00000100: d9a7 f7bd 119e 41be 0c9e c63e ec11 cfbc
00000110: efb2 843d 7099 bc3c bf01 e43e 2a22 653c
00000120: 9ee5 e03c fac7 7dbd bad2 f1bd 58fa 14bd
00000130: ed1d 83bc 288b 083d 991c ec3e 083e 1a3d
00000140: d5ed dcbd 4022 debb dc1c d13d 34ff ba3e
00000150: ac3d 393e caf4 b4bb a7f5 933d bb06 003d
00000160: 375c e6bc c433 8a3e 598b 2c3d 9640 67bd
00000170: f6e5 503d ae57 ff3e 9978 50bd c8d9 afbd
00000180: 1603 3ebc 1d5e d43e 6e35 c23e d534 dd3b
00000190: b754 9bbd 3dc5 343e a39f 0b3d 35b1 b8bd
000001a0: 3c5a c53e f4c8 cebc a13b 533e 86aa 09bd
000001b0: 8b98 a83e 404c 163d 053e 9b3c a4e3 643d
000001c0: 8c35 74bd faa0 fe3e ee3f 90bd c632 5ebc
000001d0: 76f8 4b3e 7665 d63e 4893 d83e 7ab4 ba3e
000001e0: 6dd9 dbbd 691d 0abb d406 b33e 9e02 913e
000001f0: 80e3 0c3d 9fcc 063d 23a7 003f 6bad 873d
0.029320372 0.06002755 -0.08069282 0.49149784 0.03351719 0.0871084 0.06198022 0.4312385
0.038407095 -0.15144584 -0.07080445 -0.032820534 0.42278242 0.26490492 0.43259415 0.004444961
-0.022340547 0.47322714 0.0458189 0.11506553 0.48150754 0.38953012 0.491762 0.42582497
-0.028090918 -0.07729839 0.037312973 0.08725495 0.019430611 -0.014971579 0.14422148 0.072293006
-0.026509222 0.07732512 0.008340873 0.16741903 0.0014146845 -0.11939035 -0.01027058 0.030224385
0.40992716 0.014332405 0.49446383 0.2093033 0.03483886 0.31040683 0.28452036 -0.019606087
0.0099458955 0.0887977 0.247632 -0.0075228927 0.32609373 0.021962393 -0.065698855 0.026240902
0.48416737 0.05993483 0.1636362 0.028327588 -0.03697118 0.44883305 0.011990598 0.44648215
-0.12092561 -0.18907954 0.38792455 -0.0252771 0.064794414 0.023022383 0.44532582 0.013985196
0.02745324 -0.06195829 -0.11807771 -0.03637156 -0.01600548 0.033335835 0.46115568 0.037656814
-0.1078755 -0.0067789853 0.102105826 0.3652283 0.18089932 -0.005522345 0.07224589 0.03125642
-0.028120143 0.2699262 0.04212508 -0.05645808 0.051000558 0.49871582 -0.05089626 -0.0858646
-0.011597415 0.41478053 0.3793139 0.006750683 -0.075845174 0.17653365 0.03408779 -0.090181746
0.38545406 -0.025242306 0.20628215 -0.03360989 0.3292888 0.03669381 0.018950472 0.055881158
-0.05962138 0.4973219 -0.070434436 -0.01356191 0.19918999 0.41874284 0.42299867 0.36465818
-0.1073483 -0.0021074659 0.34966147 0.2832231 0.03439665 0.032909986 0.5025503 0.06624874

net.4.weight f4 [1, 128]
00000000: 8979 66be 6d3e 6ebe 5311 043d 4b23 943e
00000010: 77da 7bbe 13a7 23be 97ca 1cbe 0ed5 933e
00000020: 2f26 80be a03b 82be 7517 033d 8cbe 56bd
00000030: 82fc 623e 12bd f43d f904 873e 2a3e e4bd
00000040: d973 53be fbf3 ce3e 1c9e 10be e2e8 57be
00000050: 4584 af3e 91bc 9e3e cd46 a83e e548 203e
00000060: 0b6e 3dbe aa0f 4539 e30c 6bbe 585b 6dbe
00000070: 0242 78be 4982 82be e1b3 933e c6e8 71be
00000080: e426 28be f263 65be e5c6 61be 0065 143e
00000090: 13d1 58be 2488 193c c72e 3cbe 2618 61bd
000000a0: 7888 9e3e 4035 86be 88d4 9c3e fe3d 763e
000000b0: a578 4ebe 9c89 6f3e 48d5 7a3e 3af5 913d
000000c0: 6796 7cbe a0ab 51be e4ea 3c3e ef5a 84be
000000d0: f7da 533e e99b 34be 28a8 18be 83b0 43be
000000e0: e3f7 c93e a40e 56be 40ac 333e 4131 5ebe
000000f0: 21fb 83be b13d e13e a579 3ebe e10b cf3e
00000100: abe6 333d bf89 12be fe97 aa3e bd62 80bd
00000110: 661a 46be b130 42be 25cd a83e 7744 69bd
00000120: d6cd 2fbe 1262 6ebe 7353 94be 62d3 3ebe
00000130: 7ac6 83be 7f52 84be c46c 823e 19e0 49be
00000140: 0ab4 95bc eb3b 5ebe 649b 5bbe bb2d ac3e
00000150: c017 033e acf5 68be 7b2f 34be 494d 63be
00000160: 33cd 5ebe e4fd 0c3e bdb8 4fbe 9c71 43be
00000170: b750 47be 9ded a33e d35b 85be bbfd 5fbe
00000180: 03b3 7bbe da42 843e 2f98 ad3e 33ff 81be
00000190: 2d36 85be 15e0 f23d 73df 75be 257b 4fbd
000001a0: 08bb 8b3e 920d 81be 3996 2d3e 3fe2 68be
000001b0: 1fd9 9f3e 3779 93be 33dc 3dbe f665 6bbe
000001c0: dd5a 82be cfc9 b03e 6555 8dbe bdb8 5bbe
000001d0: 3124 e73d 10c8 553e 87f3 863e 1e07 7b3e
000001e0: b6a4 60be 858a 44be 928c 2d3e eb4c 803e
000001f0: 49ed 46be a6a0 29be 5663 b83e 6f6a 47be
-0.225073 -0.23266001 0.032243084 0.28933176 -0.24595056 -0.15981703 -0.15311657 0.28873485
-0.25029132 -0.25436115 0.032004792 -0.052427813 0.22166637 0.11950125 0.2637098 -0.11144669
-0.20649661 0.40420517 -0.14122814 -0.21084931 0.342806 0.3100324 0.32866517 0.15652807
-0.1849901 0.0001879322 -0.22954135 -0.23179376 -0.2424393 -0.25490025 0.28848174 -0.23623952
-0.16421086 -0.22401407 -0.22048528 0.14491653 -0.21173505 0.009370837 -0.18377219 -0.05495467
0.30963492 -0.26212502 0.30630898 0.24047086 -0.2016321 0.23392338 0.24495423 0.071268514
-0.24666749 -0.20475626 0.18448979 -0.25850627 0.20688997 -0.176376 -0.14907897 -0.19110303
0.39446935 -0.20904022 0.17546177 -0.21698476 -0.25777534 0.4399238 -0.18601091 0.4043875
0.043921154 -0.14310358 0.33319086 -0.06268833 -0.19346008 -0.18963887 0.32969013 -0.05695006
-0.17168364 -0.23279598 -0.28969917 -0.18635324 -0.25737363 -0.2584419 0.25473607 -0.19714393
-0.018274326 -0.21702544 -0.21445996 0.3362864 0.12802029 -0.22749966 -0.17596237 -0.2219745
-0.21757965 0.13768727 -0.20285316 -0.19086307 -0.19464384 0.32017222 -0.2604662 -0.21874134
-0.24580006 0.25832254 0.3390517 -0.25390014 -0.26017895 0.118591465 -0.2401102 -0.05065455
0.2729113 -0.25205666 0.16951837 -0.22742556 0.31220338 -0.28803417 -0.1854103 -0.22988114
-0.25459948 0.34528968 -0.27604213 -0.21457191 0.112862 0.20877099 0.26357672 0.24514434
-0.21937832 -0.19193466 0.16948155 0.25058684 -0.19426455 -0.16565189 0.36013287 -0.19474195
