Configuration 2/ppo_actor_continuous.pth (torch, 120403 bytes, 5 tensors)

net.0.weight f4 [128, 98]
0.075101845 0.03474739 -0.05015417 -0.09710757 -0.019864509 0.011230955 -0.110932164 0.07471549
0.023697572 -0.06272509 0.09177496 -0.0058789942 -0.0826061 0.07022113 -0.040430985 0.018220585
-0.042142257 -0.07685192 -0.050413314 -0.03840093 -0.0388981 -0.072653376 -0.0821739 -0.1068933
-0.081385486 -0.10211229 -0.08593945 -0.070782386 0.052624114 0.082013525 -0.010043124 -0.03532759
0.02251779 -0.083781704 0.06269524 -0.020004738 -0.03358642 0.0548561 0.08206465 -0.02697902
-0.09469212 -0.033383347 -0.051991545 -0.00896744 0.064368345 0.012609956 0.06755286 -0.019821376
-0.028146273 -0.07589386 0.080723055 0.036825728 0.07544161 0.01192002 0.1018359 -0.10037964
-0.05495676 -0.021704143 -0.08465978 -0.08193996 -0.032350257 0.062868446 -0.034825075 0.08720196
0.031867858 0.06985268 -0.00059457455 -0.09864133 -0.003570011 0.07599474 0.08245753 0.07032826
-0.076541856 -0.011132109 -0.08060513 0.038981512 0.037911035 -0.05473502 0.035061173 0.03094332
0.026946813 0.058359504 0.02484594 0.14070864 0.0006905413 -0.07666062 0.032006044 -0.11449168
-0.10369304 0.089729995 0.032029156 -0.07710083 -0.07797459 -0.01319776 -0.028658107 -0.041746844
0.020157784 0.068031706 -0.019688077 0.07574941 0.0010051872 -0.13242255 0.013052471 -0.0539976
-0.11223412 0.016260909 -0.07526523 0.074469544 0.0018893647 0.065382324 0.051991533 0.046478223
0.1319892 0.021524547 0.07758372 0.043367688 0.08129585 -0.050989997 -0.033403683 0.045457445
0.12495954 -0.0396455 -0.047092166 -0.0013374814 -0.09238191 -0.054812256 0.12609231 0.16122505
0.15770115 -0.011378857 -0.12496492 -0.12457428 -0.043576855 0.021804737 0.07490211 0.030655093
-0.048911113 0.040879387 0.012319304 0.004356781 -0.03651042 0.06252711 0.014518588 -0.0905154
0.08681639 -0.10239408 -0.070533216 0.012873341 -0.03855277 -0.058877617 0.027067173 -0.026328051
-0.057268567 -0.0615015 -0.06387138 0.07229377 0.1040574 -0.0023558282 -0.0041015125 -0.04703228
0.058854006 0.078918785 -0.043566447 -0.021887328 0.095232844 -0.039331984 0.049852066 -0.04093424
0.06300904 0.034011163 -0.07749208 0.09245144 0.033657007 -0.017259171 0.102468476 -0.010879704
-0.038684003 0.043589424 0.04457935 -0.027196959 0.12442105 0.025440415 -0.034185246 0.0141989505
0.067166835 0.081258625 0.07396315 -0.043034244 0.035030466 -0.001223743 -0.05189464 -0.052994307
-0.048112832 -0.06547828 0.05751741 0.07947268 0.04679886 0.008811651 -0.035919003 -0.03374463
-0.051017392 -0.030756967 -0.09233418 0.0032879065 0.07748297 -0.016096804 0.020544969 -0.0019659007
-0.014038707 0.048764687 -0.04743325 -0.09015819 -0.023981135 0.09084568 0.10298307 0.004448929
0.042075567 -0.038832486 -0.101024576 0.0042716847 0.06533657 0.1378446 0.062475752 0.04280522
-0.03904503 -0.06717755 0.059668884 0.12870923 -0.03547885 0.07855118 0.0880822 0.020017708
-0.05218753 0.07797938 0.08567508 -0.07518542 -0.019251412 0.09210706 -0.073465355 -0.063142434
0.012805203 0.06142244 -0.02937418 -0.12077496 -0.04553938 0.09603174 -0.0457717 0.033984836
0.079158574 0.047528207 -0.09372252 0.052127033 -0.017084906 -0.028103791 -0.037329387 0.017115576
00000000: ffce 993d 4753 0e3d 756e 4dbd 55e0 c6bd
00000010: e5ba a2bc 0a02 383c 6730 e3bd 6f04 993d
00000020: 6921 c23c 0376 80bd 83f4 bb3d 94a4 c0bb
00000030: 632d a9bd 19d0 8f3d f69a 25bd 5643 953c
00000040: 5c9d 2cbd 8a64 9dbd 317e 4ebd 4b4a 1dbd
00000050: 9d53 1fbd 4bcb 94bd ca4a a8bd e0ea dabd
00000060: 6fad a6bd 4020 d1bd 0601 b0bd 5bf6 90bd
00000070: 628c 573d b5f6 a73d ea8b 24bc aab3 10bd
00000080: 3a77 b83c be95 abbd 5d66 803d fae0 a3bc
00000090: ea91 09bd cab0 603d 8311 a83d 1b03 ddbc
000000a0: f1ed c1bd fabc 08bd 16f5 54bd 2bec 12bc
000000b0: 8dd3 833d fd99 4e3c 2759 8a3d 7060 a2bc
000000c0: 0393 e6bc 3d6e 9bbd 2152 a53d 93d6 163d
000000d0: 2181 9a3d 304c 433c 578f d03d d793 cdbd
000000e0: 571a 61bd e3cc b1bc 1b62 adbd 23d0 a7bd
000000f0: b481 04bd 2cc1 803d bda4 0ebd f196 b23d
00000100: df87 023d ec0e 8f3d 39dd 1bba 7704 cabd
00000110: d8f6 69bb 21a3 9b3d 7edf a83d 4308 903d
00000120: fac1 9cbd 7363 36bc 4d14 a5bd 14ab 1f3d
00000130: 9a48 1b3d d431 60bd 4e9c 0f3d d87c fd3c
00000140: 90bf dc3c 600a 6f3d b689 cb3c ed15 103e
00000150: 7105 353a 3e00 9dbd c518 033d 9d7a eabd
00000160: 045d d4bd 5cc4 b73d 0131 033d 0ae7 9dbd
00000170: 24b1 9fbd 6b3b 58bc 68c4 eabc bdfe 2abd
00000180: f021 a53c 3554 8b3d e448 a1bc 8222 9b3d
00000190: 7cc0 833a c799 07be 08da 553c 962c 5dbd
000001a0: 01db e5bd 9935 853c a824 9abd 7d83 983d
000001b0: 8fa4 f73a 2be7 853d 13f5 543d f35f 3e3d
000001c0: 2d28 073e 3f54 b03c 37e4 9e3d 51a2 313d
000001d0: 707e a63d e3da 50bd 4dd2 08bd 9631 3a3d
000001e0: caea ff3d 5263 22bd b7e3 40bd 6e4e afba
000001f0: ba32 bdbd d182 60bd 581e 013e 2e18 253e
00000200: 697c 213e 636e 3abc 9ced ffbd cd20 ffbd
00000210: a57d 32bd d99f b23c 4766 993d 6420 fb3c
00000220: 0557 48bd 2571 273d e8d6 493c 54c3 8e3b
00000230: f38b 15bd 370e 803d 5fdf 6d3c 2360 b9bd
00000240: cbcc b13d fdb3 d1bd b873 90bd b5ea 523c
00000250: 82e9 1dbd a829 71bd fabb dd3c edad d7bc
00000260: 7292 6abd ffe8 7bbd 00cf 82bd c20e 943d
00000270: 0c1c d53d 3d64 1abb fb65 86bb eca4 40bd
00000280: e610 713d 2ca0 a13d bb72 32bd 0e4d b3bc
00000290: 7009 c33d 931a 21bd ae31 4c3d a9aa 27bd
000002a0: e20a 813d 4a4f 0b3d 2bb4 9ebd 2e57 bd3d
000002b0: eedb 093d 1b63 8dbc feda d13d c940 32bc
000002c0: 1e73 1ebd d38a 323d d698 363d 28cc debc
000002d0: 77d0 fe3d 6b68 d03c d405 0cbd b7a2 683c
000002e0: c48e 893d ec6a a63d fe79 973d ad44 30bd
000002f0: 1b7c 0f3d 0066 a0ba 798f 54bd 8f10 59bd
00000300: f611 45bd 7a19 86bd 6097 6b3d 93c2 a23d
00000310: 29b0 3f3d be5e 103c ce1f 13bd cf37 0abd
00000320: 9df7 50bd 09f6 fbbc b419 bdbd eb79 573b
00000330: 64af 9e3d 72dd 83bc ec4d a83c 57d6 00bb
00000340: 9b02 66bc 7bbd 473d 5e49 42bd dba4 b8bd
00000350: 1674 c4bc 4d0d ba3d cae8 d23d 52c8 913b
00000360: 6e57 2c3d d00e 1fbd f9e5 cebd 7df9 8b3b
00000370: 2ecf 853d 2327 0d3e 93e6 7f3d 8754 2f3d
00000380: aeed 1fbd 6294 89bd 5c67 743d 5acc 033e
00000390: 4552 11bd 71df a03d 7164 b43d 2dfc a33c
000003a0: 97c2 55bd a7b3 9f3d 6b76 af3d d0fa 99bd
000003b0: 23b5 9dbc a0a2 bc3d 0175 96bd d250 81bd
000003c0: eacc 513c 1996 7b3d 1fa2 f0bc dd58 f7bd
000003d0: 8087 3abd 4aac c43d 1b7b 3bbd af33 0b3d
000003e0: e41d a23d f0ac 423d 98f1 bfbd 2883 553d
000003f0: a5f5 8bbc ec39 e6bc b3e6 18bd f735 8c3c

net.0.bias f4 [128]
-0.01826513 0.08960437 0.07897186 0.007360139 -0.058184013 -0.087547064 -0.0891164 0.058085877
0.046211146 0.03473523 -0.07552554 -0.007108269 -0.061330434 0.06974714 0.06491601 -0.00129985
0.029996688 -0.039347883 0.015996236 0.05412995 -0.034438495 -0.08681318 0.08069433 -0.05599132
0.062440902 0.05245143 0.028398361 -0.023446323 -0.014146522 -0.029111588 -0.04287172 -0.004892277
0.0010238222 0.049569815 -0.027154798 0.06474282 0.057419933 -0.027868068 -0.025726333 -0.058310784
-0.07078442 0.036467113 -0.07886656 0.105245 0.064295076 0.026353387 0.062356286 0.038747445
0.06945774 -0.023941014 -0.04926132 -0.09850238 0.066754445 0.020984862 0.050882343 -0.06976684
0.06024832 -0.07362461 0.042445768 0.027680904 -0.04275727 0.054570027 0.031086229 0.051400144
0.01183034 0.027394243 -0.06848812 -0.05629522 -0.07373515 0.07306411 0.017342065 -0.09634071
-0.058417313 -0.03799928 0.0596487 0.01570465 -0.00833356 0.04138476 -0.090001024 0.08417716
0.03951784 -0.06773036 -0.00941091 0.028477667 0.09766283 -0.0599256 0.02043212 0.0673454
-0.038456008 -0.041666735 0.078028 0.097033575 -0.026175627 0.034600023 0.0040321406 0.04962953
0.03432343 0.072135694 0.096799515 0.01762167 -0.057125926 -0.0444765 0.019250462 -0.037800528
0.043238726 0.096072055 0.08836065 0.08556097 -0.026961429 0.04616928 -0.0731362 0.09472737
-0.07104024 0.019384554 -0.06867131 -0.056145765 -0.057781808 -0.026660992 0.038080823 0.06996179
0.017763952 -0.074416965 0.09244595 -0.095014915 0.102184206 -0.08192773 0.07937303 -0.012662576
00000000: c1a0 95bc 7f82 b73d 00bc a13d 522d f13b
00000010: 5c52 6ebd e04b b3bd a982 b6bd 75eb 6d3d
00000020: e647 3d3d 8746 0e3d 22ad 9abd 7bec e8bb
00000030: 9f35 7bbd 97d7 8e3d aff2 843d ba5f aaba
00000040: 9dbb f53c 3f2b 21bd 8a0a 833c 5eb7 5d3d
00000050: 610f 0dbd 1ccb b1bd 1243 a53d 2857 65bd
00000060: 08c2 7f3d 50d7 563d aea3 e83c 8112 c0bc
00000070: d0c6 67bc 6d7b eebc 429a 2fbd 654f a0bb
00000080: c631 863a b809 4b3d bd73 debc e297 843d
00000090: 2a31 6b3d 934b e4bc 08c0 d2bc 4ad7 6ebd
000000a0: 6cf7 90bd 8a5e 153d ca84 a1bd b18a d73d
000000b0: 23ad 833d 0fe3 d73c 4e69 7f3d a4b5 1e3d
000000c0: dc3f 8e3d f21f c4bc 3dc6 49bd 9ebb c9bd
000000d0: 8eb6 883d 72e8 ab3c 016a 503d ebe1 8ebd
000000e0: f1c6 763d 80c8 96bd 9ddb 2d3d 10c3 e23c
000000f0: 3f22 2fbd d284 5f3d 8ca8 fe3c f588 523d
00000100: 0bd4 413c e469 e03c 8043 8cbd d195 66bd
00000110: 7402 97bd a3a2 953d f210 8e3c 474e c5bd
00000120: fe46 6fbd 22a5 1bbd 3252 743d 0aa7 803c
00000130: 7c89 08bc 1183 293d 7552 b8bd 1365 ac3d
00000140: 75dd 213d 37b6 8abd 3830 1abc ff49 e93c
00000150: 7303 c83d 8c74 75bd 4361 a73c 63ec 893d
00000160: 0c84 1dbd bdaa 2abd 25cd 9f3d 8ab9 c63d
00000170: 456e d6bc c1b8 0d3d 0c20 843b 5648 4b3d
00000180: ba96 0c3d e1bb 933d d33e c63d 525b 903c
00000190: e0fc 69bd fe2c 36bd 25b3 9d3c bad4 1abd
000001a0: 171b 313d 6dc1 c43d 6ef6 b43d 973a af3d
000001b0: 37de dcbc 001c 3d3d 6fc8 95bd 6c00 c23d
000001c0: 8c7d 91bd 5bcc 9e3c 8ba3 8cbd 1af9 65bd
000001d0: 9eac 6cbd 2768 dabc a3fa 1b3d 2148 8f3d
000001e0: b585 913c ec67 98bd 4d54 bd3d 2e97 c2bd
000001f0: f445 d13d bac9 a7bd 548e a23d b176 4fbc

net.2.weight f4 [128, 128]
0.10198933 0.012739329 -0.07452562 -0.030093769 0.061515495 0.0050254413 -0.0010685116 0.00076432986
0.03885646 0.009009238 0.06199795 -0.01438477 -0.055348177 0.0886173 0.12122511 0.02392135
-0.07923144 -0.021702506 -0.006332278 0.008414783 -0.06152148 -0.078671 0.11279538 -0.11622207
-0.006321129 0.04882907 -0.07616038 0.019755408 0.019538436 0.05981188 0.078565836 -0.006131646
-0.015540177 -0.12761787 0.044105567 0.0075692516 -0.058448933 0.05580487 0.10397865 0.071795866
-0.04759497 -0.08385916 0.039154015 0.03531667 -0.1342471 -0.05498398 -0.058424477 0.027492607
-0.0054843053 0.0069931373 -0.007442046 -0.054855507 0.038180985 0.027713215 -0.050894924 0.05818525
0.00019131455 -0.05918893 -0.020549154 0.038842347 0.010899297 0.029734835 -0.03775007 -0.0017762386
-0.015876472 0.039035387 -0.055856768 -0.024245974 0.0047528106 0.04022788 0.08862993 -0.053959947
-0.043714494 0.004811021 0.03626364 -0.03427918 -0.017202875 0.031059459 0.04083279 0.07206515
-0.0077135228 -0.03289807 -0.0077235936 0.05746843 -0.013987089 -0.1391508 -0.036018267 -0.10402238
0.07518942 -0.085081354 0.08669431 -0.06187276 -0.045418996 0.0379965 -0.04256856 0.053322352
0.061104085 -0.037683837 -0.057208408 0.008709702 -0.08796454 -0.03405937 -0.040782165 -0.063731246
0.092567146 -0.033894252 -0.0077088918 -0.007127523 -0.06661764 -0.031749986 0.040261775 0.00018292539
0.078139246 0.028172899 0.0019476449 0.0857472 0.0817884 -0.022235585 -0.030867351 -0.08272838
0.10766007 -0.011241669 -0.058544394 -0.07887244 0.008741379 -0.030105572 0.04049238 0.0912929
-0.025916958 -0.016949164 -0.010159572 -0.06038441 0.08221552 -0.023560043 -0.009717574 0.03319508
0.09967025 -0.0017231085 -0.014368604 -0.024578543 0.061520047 0.03977747 0.05165491 0.09252287
0.109147124 0.02076442 -0.020176137 0.054297276 -0.0045369994 0.042792805 0.02982564 -0.060658537
0.092207454 0.041239206 -0.0614973 -0.007043111 0.06571135 -0.08543762 0.008695524 -0.04323444
0.0052835844 0.009968938 -0.0015608477 0.028330855 0.12778641 0.032565683 0.03306074 -0.073756605
-0.020860504 -0.058506187 -0.047890626 0.09893051 0.034324363 0.061498776 -0.07742891 0.07358263
0.14741583 0.0340976 0.06499268 0.06590049 0.030927323 0.060493525 -0.046163324 0.09761972
0.029588506 -0.0729261 -0.024873534 0.06322708 0.065072104 -0.014387735 -0.021716638 0.033682343
-0.009267972 -0.028097842 0.038695488 0.08086814 -0.025203893 0.08938262 -0.026509738 -0.016506275
-0.041769512 0.03683333 -0.072439924 -0.0033471955 0.038916014 -0.018925793 -0.011612904 -0.056905683
-0.0886653 0.12175473 -0.02915578 -0.052926432 -0.0056410553 0.0042201076 0.045949537 0.065243155
-0.006303925 -0.05647044 -0.054579664 0.014480334 -0.0019792554 -0.013853447 0.060105257 -0.022684386
0.025461463 -0.1261882 0.07254728 -0.050672725 0.11832934 -0.04168121 -0.05123093 -0.003058003
0.10671778 0.004012032 0.04700085 0.10626226 -0.0340297 -0.006192584 0.08392034 -0.043922544
-0.078207865 0.10901024 0.029672574 -0.0020837756 0.05020362 0.017537547 -0.10120424 0.056854066
0.0090722665 0.06657196 0.09211385 0.016834721 -0.039286446 0.013876062 -0.04125636 0.06560476
00000000: c8df d03d 9eb8 503c e3a0 98bd 3587 f6bc
00000010: acf7 7b3d 75ac a43b 4d0d 8cba 4f5d 483a
00000020: f427 1f3d 7c9b 133c 90f1 7d3d 19ae 6bbc
00000030: c5b4 62bd fd7c b53d df44 f83d b5f6 c33c
00000040: 1844 a2bd 74c9 b1bc ff7e cfbb 28de 093c
00000050: f3fd 7bbd 431e a1bd 4401 e73d d605 eebd
00000060: 7921 cfbb fe00 483d f9f9 9bbd 18d6 a13c
00000070: 120f a03c 4dfd 743d 20e7 a03d faeb c8bb
00000080: 3a9c 7ebc 42ae 02be 0aa8 343d 7c07 f83b
00000090: 2668 6fbd a693 643d c2f2 d43d b609 933d
000000a0: f1f2 42bd 5abe abbd f65f 203d 36a8 103d
000000b0: 1278 09be e236 61bd 814e 6fbd 2d38 e13c
000000c0: b0b5 b3bb b026 e53b 68dc f3bb 2bb0 60bd
000000d0: aa63 1c3d d306 e33c 3277 50bd a853 6e3d
000000e0: 9c9b 4839 1770 72bd b356 a8bc 2719 1f3d
000000f0: f792 323c 7896 f33c d19f 1abd add0 e8ba
00000100: 600f 82bc 92e3 1f3d 11ca 64bd 7e9f c6bc
00000110: 77bd 9b3b fdc5 243d 9c83 b53d 1b05 5dbd
00000120: f80d 33bd c5a5 9d3b 2f89 143d 5368 0cbd
00000130: 0bed 8cbc 6870 fe3c 4940 273d e596 933d
00000140: b8c1 fcbb 20c0 06bd 3316 fdbb 0464 6b3d
00000150: 1a2a 65bc 8c7d 0ebe e487 13bd b009 d5bd
00000160: e9fc 993d 223f aebd c98c b13d 4b6e 7dbd
00000170: 4509 3abd 38a2 1b3d 5f5c 2ebd 8a68 5a3d
00000180: 4748 7a3d 5e5a 1abd 5d53 6abd 23b3 0e3c
00000190: c126 b4bd d781 0bbd 330b 27bd 8785 82bd
000001a0: d893 bd3d b3d4 0abd df9a fcbb ff8d e9bb
000001b0: d46e 88bd 460c 02bd 88e9 243d a9cf 3f39
000001c0: 7807 a03d daca e63c 1e48 ff3a 3a9c af3d
000001d0: ad80 a73d 6727 b6bc 87dd fcbc 7f6d a9bd
000001e0: e27c dc3d fa2e 38bc 3fcc 6fbd e087 a1bd
000001f0: 0038 0f3c f69f f6bc 56db 253d c6f7 ba3d
00000200: cd4f d4bc f9d8 8abc 5574 26bc a555 77bd
00000210: 9c60 a83d fe00 c1bc 7636 1fbc 90f7 073d
00000220: eb1f cc3d edd9 e1ba 4b6a 6bbc f158 c9bc
00000230: 72fc 7b3d b3ed 223d 1994 533d a17c bd3d
00000240: 8788 df3d 251a aa3c 6d48 a5bc d266 5e3d
00000250: 1cab 94bb 8247 2f3d e754 f43c 1675 78bd
00000260: 43d7 bc3d 71ea 283d 98e4 7bbd e6c9 e6bb
00000270: ac93 863d ebf9 aebd ac77 0e3c 9916 31bd
00000280: eb21 ad3b c254 233c 5c95 ccba 1c16 e83c
00000290: 71da 023e 9863 053d b36a 073d b40d 97bd
000002a0: a6e3 aabc 2fa4 6fbd f628 44bd 149c ca3d
000002b0: b497 0c3d 24e6 7b3d 0c93 9ebd 7db2 963d
000002c0: 2df4 163e eda9 0b3d e21a 853d d6f6 863d
000002d0: 4c5b fd3c 0fc8 773d c115 3dbd d9ec c73d
000002e0: 9863 f23c 475a 95bd 95c3 cbbc 337d 813d
000002f0: 8644 853d 89ba 6bbc 17e7 b1bc 7ff6 093d
00000300: b1d8 17bc 722d e6bc 297f 1e3d 329e a53d
00000310: 6578 cebc 3c0e b73d f32a d9bc 2b38 87bc
00000320: 8216 2bbd 8cde 163d 625b 94bd 9f5c 5bbb
00000330: 6666 1f3d 440a 9bbc 0d44 3ebc ef15 69bd
00000340: 2796 b5bd 8b5a f93d 1ad8 eebc 63c9 58bd
00000350: 9ad8 b8bb d448 8a3b 9535 3c3d 349e 853d
00000360: 2891 cebb 8c4d 67bd ed8e 5fbd ec3e 6d3c
00000370: 65b6 01bb 91f9 62bc ee30 763d 9bd4 b9bc
00000380: 8f94 d03c 7b37 01be ab93 943d 348e 4fbd
00000390: a756 f23d ebb9 2abd 86d7 51bd c768 48bb
000003a0: da8e da3d 5d77 833b f783 403d 07a0 d93d
000003b0: ba62 0bbd 29eb cabb 6dde ab3d 20e8 33bd
000003c0: 722b a0bd c340 df3d e613 f33c f48f 08bb
000003d0: 50a2 4d3d e7aa 8f3c 2b44 cfbd cfdf 683d
000003e0: d8a3 143c e156 883d 30a6 bc3d f8e8 893c
000003f0: d3ea 20bd 6c58 633c 6efc 28bd ca5b 863d

net.2.bias f4 [128]
-0.09275348 -0.027883543 -0.06247869 0.035184402 0.029856345 0.00061271375 0.077080175 0.06835482
-0.054861084 0.03412924 0.068485074 0.06293944 0.078495525 -0.026427004 -0.069653705 0.017050885
-0.09440016 0.01270723 0.015177619 0.05394187 -0.0007626175 0.019113367 -0.04259933 -0.050234135
0.00054084166 -0.05453302 0.047401052 -0.056173757 -0.07289853 -0.024387976 -0.013660332 0.031876814
0.039056927 -0.027833765 -0.014934257 0.047721237 0.049583554 0.027200488 -0.025404213 -0.057667684
-0.027872063 0.0822685 0.055713814 0.0715269 0.007970646 -0.05611799 0.055384003 -0.03648117
-0.065542564 0.04306479 -0.0028841305 -0.081534974 -0.0057256278 -0.064469844 -0.034121204 -0.06870862
-0.059818096 -0.06934359 -0.04141789 0.0057910895 0.07886545 0.0418659 -0.04438738 0.06360107
0.05689274 -0.029486723 0.038242202 -0.03858266 -0.008978424 0.042148296 0.0473307 -0.05460439
-0.055975772 -0.003938012 -0.048218694 0.025861088 0.038975008 -0.06738514 0.04634036 -0.04624019
0.02351056 -0.017726438 -0.054893296 0.051340964 0.028613795 0.06412999 -0.058771998 -0.0796952
0.07968894 -0.05595277 0.07083968 -0.030243225 0.06471012 -0.06988902 -0.013201664 0.002738258
-0.05817969 0.022036282 0.058139846 -0.05175091 -0.0051896777 -0.03159986 0.052053086 0.02405398
-0.060189195 0.06493431 -0.021502547 0.015411388 0.029379565 0.07565374 -0.07106078 -0.023175916
-0.02667866 -0.0689335 -0.0068492973 0.08240125 -0.06832877 -0.011351393 -0.08495828 -0.08318262
-0.074395224 0.02078089 0.012125549 0.03714033 0.06414515 0.007333369 -0.10442986 0.022874791
00000000: 89f5 bdbd 076c e4bc a8e9 7fbd 851d 103d
00000010: 4b95 f43c 869e 203a 36dc 9d3d 9dfd 8b3d
00000020: 04b6 60bd 1acb 0b3d e741 8c3d 65e6 803d
00000030: 43c2 a03d 727d d8bc 9aa6 8ebd 4cae 8b3c
00000040: df54 c1bd fc31 503c 8cab 783c 26f2 5c3d
00000050: 65ea 47ba a393 9c3c a37c 2ebd 4fc2 4dbd
00000060: 45c7 0d3a 045e 5fbd 9b27 423d 7416 66bd
00000070: d34b 95bd 4bc9 c7bc 96cf 5fbc 4391 023d
00000080: 28fa 1f3d a303 e4bc d0ae 74bc 5877 433d
00000090: 2018 4b3d 8fd3 de3c 7f1c d0bc f334 6cbd
000000a0: f453 e4bc 637c a83d 2b34 643d b27c 923d
000000b0: 5097 023c fadb 65bd 56da 623d 486d 15bd
000000c0: 2e3b 86bd b564 303d ae03 3dbb cffb a6bd
000000d0: 0c9e bbbb c408 84bd adc2 0bbd 1bb7 8cbd
000000e0: d203 75bd 0304 8ebd cea5 29bd 2ec3 bd3b
000000f0: 3684 a13d 947b 2b3d 8bcf 35bd 4741 823d
00000100: 5d08 693d 248e f1bc dba3 1c3d da08 1ebd
00000110: 3d1a 13bc b1a3 2c3d d6dd 413d daa8 5fbd
00000120: da46 65bd 700a 81bb f780 45bd a2da d33c
00000130: 42a4 1f3d 3801 8abd 64cf 3d3d 5a66 3dbd
00000140: 3899 c03c 0937 91bc cbd7 60bd e74a 523d
00000150: 7a67 ea3c 9656 833d e8ba 70bd 3d37 a3bd
00000160: f433 a33d bb2e 65bd 6514 913d a4c0 f7bc
00000170: bd86 843d f921 8fbd cb4b 58bc 5974 333b
00000180: d44d 6ebd 6f85 b43c 0c24 6e3d c3f8 53bd
00000190: 2c0e aabb db6e 01bd 9e35 553d da0c c53c
000001a0: f288 76bd 48fc 843d 1c26 b0bc 0c80 7c3c
000001b0: 6aad f03c 59f0 9a3d 5088 91bd 6bdb bdbc
000001c0: 358d dabc 022d 8dbd 1270 e0bb fdc1 a83d
000001d0: f4ef 8bbd 31fb 39bc 9bfe adbd a65b aabd
000001e0: 865c 98bd af3c aa3c 3daa 463c 7520 183d
000001f0: 885e 833d c24c f03b 53df d5bd ea63 bb3c

net.4.weight f4 [1, 128]
-0.050311632 -0.042451926 0.11082693 -0.014816628 0.03344031 0.013521264 0.08916377 0.026556496
0.03984852 0.04199824 -0.01651894 -0.052425157 0.080654986 -0.057581764 0.09962135 -0.047589604
0.041449547 -0.03539469 0.050972547 -0.07180367 0.08313096 -0.013457075 0.073933125 0.11415022
-0.061546206 -0.06003707 -0.0879238 0.028542642 -0.041133482 -0.03183439 -0.024466826 -0.06877591
-0.09228113 0.10249187 0.11749998 -0.11741501 -0.024587696 -0.015761528 0.042993806 -0.059433542
-0.08640106 0.054339167 0.017438661 -0.052626062 -0.079101 -0.038827106 0.008515296 0.10322738
-0.09067209 -0.082335725 0.076182604 0.043332137 -0.06655466 -0.079159014 0.12597108 -0.04894261
0.050027773 0.07641061 -0.009356373 -0.053116035 0.04494559 0.11725898 -0.063542925 -0.05173113
0.07485331 0.01756871 0.022927226 0.09666169 0.01782628 0.04177745 -0.03273989 0.08618782
-0.046078697 -0.11170511 -0.0611899 0.049756512 0.014647822 0.085126296 0.086801834 0.08210807
0.04369938 -0.082335934 0.038103096 0.084653005 -0.0454607 -0.09975327 -0.03756066 0.07593458
-0.10599934 -0.11905075 0.080684446 0.065559834 -0.080834284 -0.059561294 -0.05016002 -0.025893474
-0.08886216 0.050184812 -0.04314418 -0.11441112 -0.11785186 -0.1251466 0.049727697 0.083603
0.047060955 -0.019876951 -0.099148996 0.04173718 0.01336685 -0.08838913 -0.035496656 0.03048273
0.0648922 -0.10480989 0.0926867 -0.028706968 0.020319276 0.06379038 -0.07998387 0.01190297
0.1217128 -0.10581413 0.1102239 0.101039894 0.05766036 -0.09320059 0.03185525 0.095875345
00000000: 9213 4ebd 12e2 2dbd 3bf9 e23d 71c1 72bc
00000010: b5f8 083d 4b88 5d3c 7f9b b63d 028d d93c
00000020: 3438 233d 5906 2c3d ba52 87bc c3bb 56bd
00000030: 712e a53d dbda 6bbd 4706 cc3d 51ed 42bd
00000040: 00c7 293d 06fa 10bd 97c8 503d cd0d 93bd
00000050: 9140 aa3d 107b 5cbc 406a 973d 97c7 e93d
00000060: e017 7cbd 6ee9 75bd 6511 b4bd 42d2 e93c
00000070: 957b 28bd c764 02bd a76e c8bc 62da 8cbd
00000080: e4fd bcbd 42e7 d13d d4a3 f03d 4877 f0bd
00000090: 236c c9bc 521e 81bc 461a 303d 9670 73bd
000000a0: 0af3 b0bd bf92 5e3d 86db 8e3c 6d8e 57bd
000000b0: b5ff a1bd 2c09 1fbd bd83 0b3c e068 d33d
000000c0: 4ab2 b9bd a29f a8bd a005 9c3d 0a7d 313d
000000d0: cf4d 88bd 1f1e a2bd 90fe 003e 0c78 48bd
000000e0: ece9 4c3d 2a7d 9c3d 794b 19bc 3390 59bd
000000f0: de18 383d 7a25 f03d cb22 82bd 05e4 53bd
00000100: b14c 993d 41ec 8f3c e1d1 bb3c 90f6 c53d
00000110: 6b08 923c d51e 2b3d 431a 06bd 3d83 b03d
00000120: 04bd 3cbd a6c5 e4bd 43a2 7abd 7ccd 4b3d
00000130: 6bfd 6f3c b256 ae3d 29c5 b13d 4728 a83d
00000140: 1ffe 323d be9f a8bd fe11 1c3d 8e5e ad3d
00000150: 0035 3abd 714b ccbd 35d9 19bd 9783 9b3d
00000160: 2f16 d9bd e1d0 f3bd e33d a53d 3c44 863d
00000170: 728c a5bd 8bf6 73bd 9874 4dbd 8d1e d4bc
00000180: 5dfd b5bd 978e 4d3d f4b7 30bd 6150 eabd
00000190: 515c f1bd 6e26 00be 45af 4b3d 0d38 ab3d
000001a0: fdc2 403d fdd4 a2bc a10e cbbd 9bf4 2a3d
000001b0: a200 5b3c 5c05 b5bd f164 11bd ebb6 f93c
000001c0: 34e6 843d 91a6 d6bd 86d2 bd3d e02a ebbc
000001d0: 9c74 a63c 88a4 823d 95ce a3bd ad04 433c
000001e0: 8f44 f93d 14b5 d8bd 11bd e13d 01ee ce3d
000001f0: 452d 6c3d f3df bebd a77a 023d 4b5a c43d
