Configuration 2/ppo_actor_continuous.pth (torch, 120403 bytes, 5 tensors)

net.0.weight f4 [128, 98]
0	0x3d64b40d	0.055835772
1	0x3c32ff4f	0.010925128
2	0x3d0ecf71	0.0348658
3	0xbae92464	-0.0017787335
4	0x3d951121	0.07278658
5	0x3d41ea0d	0.04734235
6	0x3d8c32f4	0.06845656
7	0xbcf81ff2	-0.03028867
8	0xbd8bfe0a	-0.068355635
9	0x3caaa3df	0.020830093
10	0x3dac301c	0.08407614
11	0xbdc871c5	-0.09787325
12	0xbda0609c	-0.07830927
13	0x3d27169f	0.040793058
14	0xbd35eb57	-0.04441389
15	0x3d464a38	0.048410624
16	0xbd667b9e	-0.056270234
17	0x3dc52221	0.0962565
18	0x3d8ad3bd	0.06778667
19	0x3d8b21b3	0.06793537
20	0x3dac5beb	0.084159695
21	0xbd8a0915	-0.067400135
22	0x3dcc796a	0.099840954
23	0x3d09df5e	0.033660285
24	0xbcb4c063	-0.022064393
25	0x3bd0d736	0.0063733114
26	0x3c4e1757	0.012578807
27	0xbdf61338	-0.120153844
28	0x3da70cee	0.08156763
29	0x3cef8595	0.029238502
30	0x3d3e8e55	0.046522457
31	0x3d7e1adb	0.06203733
32	0x3d8cb3fa	0.06870265
33	0xbdd04d4a	-0.10170992
34	0x3dcd4dfd	0.10024641
35	0x3c441810	0.011968628
36	0xbd8393c8	-0.064246714
37	0x3d8f4901	0.06996346
38	0xbccb80c1	-0.024841668
39	0xbcacb6d9	-0.021083282
40	0xbd1ff115	-0.039048273
41	0xbdb95588	-0.09049517
42	0x3de16fe1	0.11007667
43	0x3da5575b	0.08073302
44	0xbe1b091b	-0.15140192
45	0x3dd76e72	0.10519113
46	0xbd0809a2	-0.03321231
47	0xbd8a215a	-0.067446426
48	0x3c571abb	0.013128932
49	0x3b9ae1ac	0.004726609
50	0x3db85eb5	0.09002439
51	0x3d6c0e74	0.05763097
52	0x3d06ff4b	0.03295831
53	0x3cb00ddf	0.02149099
54	0xbd7a9227	-0.061174538
55	0xbc90f5ce	-0.017695334
56	0x3d5fda9e	0.05465185
57	0x3d927874	0.07151881
58	0x3c49d93a	0.012319857
59	0xbd7bc263	-0.06146468
60	0xbd4e6351	-0.050387684
61	0x3d5e60fc	0.05429171
62	0x3d8bd26b	0.068272434
63	0xbd0d36a8	-0.034475952
64	0xbd84b189	-0.06479175
65	0x3d220590	0.039556086
66	0xbc9fea4b	-0.0195209
67	0x3dd5b8f0	0.10435665
68	0x3daaf3a1	0.0834725
69	0x3ccb4e23	0.024817532
70	0x3daf44e0	0.08558059
71	0xbd7d7072	-0.061874814
72	0x3da0a0c0	0.07843161
73	0x3dca9191	0.09891046
74	0xbcd9edab	-0.026602587
75	0x3b8bab55	0.0042623677
76	0x3e01f660	0.12691641
77	0x3dfd6e99	0.123746105
78	0xbcb44bd1	-0.022008808
79	0xbb5b4aaf	-0.0033461263
80	0xbdb05918	-0.08610743
81	0x3d90cf35	0.070707716
82	0x3d813096	0.06308095
83	0x3dc57568	0.09641534
84	0xbd9d48d3	-0.07679906
85	0x3c6edaa7	0.014578498
86	0xbdb34c7b	-0.08754822
87	0x3d5717f7	0.05251309
88	0xbd93dc44	-0.07219747
89	0xbdfe9644	-0.12431005
90	0xbc81b9cf	-0.01583567
91	0x3c9be73f	0.019031165
92	0xbc942401	-0.018083574
93	0x3d0f2349	0.03494576
94	0xbc751224	-0.014957938
95	0x3daaeb61	0.08345676
96	0x3d47cfc6	0.048782133
97	0x3d4a8f2f	0.049452957
98	0x3c274155	0.010208447
99	0x3db41ee3	0.08794954
100	0x3d71c07b	0.059021454
101	0xbdc9a04a	-0.09845026
102	0xbd8730d7	-0.06601112
103	0x3d4ccabb	0.049998026
104	0x3d178f9e	0.0370022
105	0x3d779328	0.060443074
106	0x3caad7d4	0.020854868
107	0xbce64e49	-0.028113501
108	0xbc9998fd	-0.018749708
109	0x3d712e85	0.058882255
110	0xbd7c46db	-0.06159101
111	0x3cb1561e	0.02164751
112	0x3d119f00	0.035552025
113	0x3d75de9b	0.060026746
114	0x3d51e09a	0.051239587
115	0x3d909791	0.07060159
116	0x3d6bc0be	0.05755686
117	0x3cd2cb36	0.025731664
118	0x3df01b34	0.117239386
119	0x3bdc5e08	0.0067250766
120	0xbd4029d7	-0.0469149
121	0x3d1512b5	0.036394794
122	0x3d2c0643	0.04199816
123	0x3ca6abbd	0.020345563
124	0x3cf806f4	0.030276753
125	0xbd09243e	-0.03348183
126	0x3d7b6191	0.061372343
127	0x3d21c69b	0.039496046
128	0x3c996c4b	0.018728396
129	0xbd8b39ea	-0.067981556
130	0x3dbe09f6	0.09279244
131	0x3d7f3a29	0.062311325
132	0xbdae0598	-0.08497161
133	0xbddf6a1d	-0.109089114
134	0x3d1a68dd	0.03769766
135	0x3d82a3f0	0.06378925
136	0xbd500a77	-0.05079123
137	0x3d87bb36	0.066275045
138	0x3d832691	0.0640384
139	0x3cfa9491	0.03058842
140	0xbb8321af	-0.004001818
141	0xbd01e44e	-0.03171187
142	0xbdc13278	-0.09433454
143	0xbd09b519	-0.033619974
144	0x3d15e705	0.03659727
145	0x3db6e639	0.0893063
146	0xbde12c0d	-0.1099473
147	0xbda702c6	-0.08154826
148	0x3c126072	0.008934127
149	0xbda8a9d1	-0.08235515
150	0xbca22870	-0.019794673
151	0x3da46d09	0.08028609
152	0xbd44f8cb	-0.04808883
153	0x3d6f9da0	0.058499932
154	0x3da5a83b	0.08088728
155	0xbcf42665	-0.029803464
156	0x3d1ac4e6	0.037785433
157	0x3d8085ca	0.06275518
158	0x3d9206f3	0.07130232
159	0x3d656cb2	0.056011863
160	0xbd1adf8e	-0.037810855
161	0xbd194205	-0.037416477
162	0x3d28d3a8	0.041217476
163	0x3db251bf	0.08706998
164	0x3b9d5d5a	0.004802388
165	0xbd492158	-0.049104065
166	0xbdd81a5d	-0.105519034
167	0x3d7a652b	0.061131638
168	0x3d9ff293	0.07809939
169	0x3da7608c	0.08172712
170	0xbd03f4ef	-0.03221601
171	0x3d624a21	0.055246476
172	0x3d9f37b5	0.07774297
173	0xbd830fce	-0.06399499
174	0xbd9781a2	-0.07397772
175	0x3dc9fed3	0.09863057
176	0x3c837a82	0.016049627
177	0x3da02004	0.078186065
178	0xbda09535	-0.07840959
179	0xbc861da5	-0.016371557
180	0xbc5ce4e7	-0.013482309
181	0xbcd400f2	-0.025879357
182	0xbb8bd569	-0.004267384
183	0x3c71fb28	0.014769353
184	0x3d6634a6	0.056202553
185	0xbca7ff5f	-0.020507513
186	0xbd2eb5fd	-0.042654026
187	0xbdba38cf	-0.09092867
188	0x3d2b9f90	0.041900218
189	0xbd826669	-0.063671894
190	0x3cc3781c	0.023860984
191	0x3d9eebbf	0.07759809
192	0xbd98efbb	-0.074676
193	0x3d2d39de	0.042291515
194	0xbdb3383a	-0.08750959
195	0x3dcbaf07	0.09945493
196	0x3daf7866	0.08567886
197	0xbd89103c	-0.066925496
198	0xbdef42c4	-0.116826564
199	0xbcb80d54	-0.022467293
200	0x3c7381ee	0.014862521
201	0xbd533219	-0.05156145
202	0x3c5fc8a7	0.013658679
203	0x3d088992	0.033334322
204	0x3d7db3a6	0.061938904
205	0xbde06c7e	-0.10958193
206	0x3deee97a	0.11665626
207	0xbd817c54	-0.06322542
208	0xbdaf291a	-0.085527614
209	0xbc3d55cf	-0.011556103
210	0x3ce2e495	0.027696887
211	0x3d6c1b46	0.057643197
212	0x3dd80173	0.105471514
213	0xbd2f9a8f	-0.042872008
214	0xbcbf8e89	-0.023383396
215	0xbd304d2a	-0.04304234
216	0xbdd05c7a	-0.101738885
217	0xbbd7a08b	-0.0065804175
218	0x3d97caa2	0.07411696
219	0xbca114ff	-0.019663332
220	0x3cae7911	0.021297963
221	0x3d8a4205	0.067508735
222	0xbc47a9b7	-0.012186459
223	0x3c1b5098	0.009479664
224	0xbb8b5ec8	-0.004253242
225	0x3daf06e0	0.08546233
226	0x3db76215	0.089542545
227	0xbd9e3370	-0.07724655
228	0xbda90529	-0.08252937
229	0xbcd6dc68	-0.026228145
230	0x3cf7dd94	0.030257024
231	0x3dfe9ee4	0.1243265
232	0x3cd44973	0.02591393
233	0x3dd09f85	0.10186676
234	0x3d7dc8cb	0.06195907
235	0x3ce37ec5	0.02777041
236	0xbbdfca3c	-0.006829528
237	0x3db78ce3	0.08962419
238	0x3d546a2a	0.05185906
239	0xbce8c83a	-0.028415788
240	0xbdb10ff5	-0.08645622
241	0x3cb7228f	0.022355346
242	0x3d4dfa56	0.050287567
243	0xbd425548	-0.04744461
244	0x3de37cb1	0.111077674
245	0x3d6c0f1b	0.057631593
246	0xbccefca1	-0.025266947
247	0x3dc96252	0.09833206
248	0x3dcd91a4	0.10037544
249	0xbd52e84c	-0.051491067
250	0x3db2cc76	0.08730404
251	0x3c56da11	0.0131135145
252	0x3ddc7611	0.10764707
253	0x3c75e1d4	0.015007455
254	0x3b6b4506	0.0035899295
255	0x3dea1603	0.1142998

net.0.bias f4 [128]
0	0x3d649343	0.055804502
1	0xbcffdc3a	-0.031232942
2	0x3a38015c	0.00070192455
3	0xbd873142	-0.06601192
4	0xbda2a82a	-0.07942231
5	0xbd008036	-0.03137227
6	0xbbd15a82	-0.006388963
7	0x3dbb5069	0.091461964
8	0x3d418664	0.047247306
9	0xbd8a78a9	-0.06761295
10	0xbd5ab407	-0.053394344
11	0xbcf786f8	-0.030215725
12	0x3daa5386	0.08316712
13	0x3c29ab93	0.010355848
14	0xbd555be7	-0.052089598
15	0xbd132de6	-0.035932444
16	0xbdab4af5	-0.08363906
17	0x3c3b3efb	0.01142859
18	0x3c8218d9	0.015880989
19	0x3ca3621b	0.019944241
20	0xbdbad040	-0.09121752
21	0x3dcc0bac	0.09963164
22	0x3d9ea2a9	0.07745869
23	0xbdac7c22	-0.08422114
24	0x3d71c1e0	0.059022784
25	0x3bb8c87a	0.005639133
26	0xbd1a07a2	-0.037604935
27	0xbd51c989	-0.05121759
28	0x3d9353c1	0.07193709
29	0x3da2b4b1	0.079446204
30	0xbd24b7d6	-0.040214382
31	0x3d8235b4	0.06357899
32	0xbd388d1f	-0.04505646
33	0xbbdcaee7	-0.006734717
34	0x3d512699	0.0510622
35	0xbd7bec60	-0.06150472
36	0x3d0761a8	0.033052117
37	0x3dc7a386	0.097479865
38	0x3c860b76	0.016362887
39	0xbccaaa93	-0.02473954
40	0x3d9330f4	0.071870714
41	0xbda33e9e	-0.07970928
42	0xbd48ecb0	-0.049053848
43	0x3dc284fd	0.09498022
44	0x3ca5f5c8	0.0202588
45	0x3d30c0bd	0.04315256
46	0x3db09e10	0.08623898
47	0x3dad6f73	0.08468523
48	0x3d9f1eff	0.07769584
49	0xbcde9a84	-0.027173288
50	0xbd86fa84	-0.06590751
51	0x3d9aa66c	0.07551274
52	0x3d527bd2	0.051387616
53	0x3d96c4dd	0.073617674
54	0xbcb9693d	-0.02263319
55	0x3da9bf9d	0.082885005
56	0x3d0ea148	0.03482178
57	0xbc1e586c	-0.009664636
58	0x3d726347	0.05917671
59	0xbd768321	-0.060183648
60	0xbd5bb4f0	-0.053639352
61	0xbd436e8b	-0.047712844
62	0xbd92f5a3	-0.07175758
63	0xbd991cc3	-0.07476189
64	0x3d4ffa0c	0.050775573
65	0xbd1fed82	-0.039044864
66	0xbd7bf2f0	-0.06151098
67	0x3ce62c5f	0.02809733
68	0x3c837fce	0.016052153
69	0x3c988eb6	0.018622737
70	0x3d26c530	0.040715396
71	0x3ce3d8b5	0.027813295
72	0x3b087347	0.0020820664
73	0x3d293da4	0.04131855
74	0xbd5e4336	-0.054263316
75	0x3cf8c450	0.030367047
76	0x3d06bfcf	0.032897767
77	0x3dc3fb20	0.09569383
78	0xbd0f5a1d	-0.034998048
79	0x3da5ecb5	0.08101789
80	0x3dcc7123	0.099825166
81	0x3cb8f489	0.022577541
82	0xbdde6e46	-0.10860877
83	0x3d5cb016	0.053878866
84	0x3c9daa43	0.019246226
85	0x3c0777c3	0.0082682995
86	0xbdb40b9d	-0.087912776
87	0x3d9c7cb6	0.07640974
88	0x3dcec87b	0.10096832
89	0xbda90acb	-0.08254012
90	0xbcd5e3ee	-0.026109662
91	0xbd507e62	-0.050901778
92	0xbd94e2bb	-0.07269808
93	0x3ccaf6d8	0.024775907
94	0xbda31059	-0.079621024
95	0xbd25aca9	-0.040447865
96	0x3c9ec21f	0.019379674
97	0x3d622f72	0.05522103
98	0x3d2605e8	0.040532976
99	0xbd04f504	-0.032460228
100	0x3d925999	0.07145996
101	0x3dd43fa4	0.10363701
102	0x3d302c41	0.043010954
103	0xbd5e20ad	-0.05423038
104	0xbd53a7d5	-0.05167373
105	0xbd2ff534	-0.042958453
106	0xbddc07ef	-0.10743701
107	0xbb4cf009	-0.0031271002
108	0xbd1dfa49	-0.03856877
109	0xbb667d13	-0.0035169765
110	0x3da8949d	0.08231471
111	0x3d9d80bd	0.076905705
112	0x3dba0663	0.090832494
113	0x3d41cf31	0.047316734
114	0x3d72d821	0.059288148
115	0xbd1950b7	-0.03743049
116	0x3d3a1373	0.045428704
117	0x3d34b8f1	0.044121686
118	0x3c9136b0	0.017726272
119	0xbce55185	-0.027992973
120	0x3d4c4f25	0.049880166
121	0x3c93a74b	0.018024107
122	0xbda30297	-0.07959478
123	0xbd1dd052	-0.038528748
124	0xbc703cc6	-0.014662927
125	0xbd4e680d	-0.0503922
126	0x3cafdf06	0.02146865
127	0xbda00dc6	-0.07815127

net.2.weight f4 [128, 128]
0	0x3b2e233a	0.002657129
1	0xbccf7b75	-0.025327424
2	0x3dd19181	0.10232831
3	0x3d279bd2	0.040920086
4	0x3d3bde9c	0.045866594
5	0x3a8ebdf2	0.0010890348
6	0x3d8b5fb1	0.06805361
7	0x3cb8f363	0.022576993
8	0xbc8f4d02	-0.017492775
9	0x3d9cc260	0.076542616
10	0x3c851f16	0.016250174
11	0x3d88271d	0.06648085
12	0x3bdc8c27	0.0067305746
13	0x3d8d74a0	0.0690701
14	0xbd97d190	-0.07413018
15	0x3c263e89	0.0101467455
16	0x3ddf3a8e	0.1089984
17	0xbd66bbcd	-0.056331445
18	0xbcc34544	-0.02383674
19	0x3d689207	0.056779888
20	0xbd311289	-0.043230567
21	0xbcd06493	-0.025438583
22	0x3d82ef72	0.06393327
23	0x3de0d2a5	0.10977677
24	0xbd05238b	-0.0325046
25	0x3dc4af83	0.09603789
26	0x3d80d10e	0.06289874
27	0x3cbdde08	0.023177162
28	0xbc1b920b	-0.009495269
29	0xbd329585	-0.043599624
30	0x3d1aa5fb	0.037755948
31	0x3d0c5732	0.034262843
32	0x3dbdbc6f	0.092644565
33	0xbd1d106e	-0.038345747
34	0xbd4982b2	-0.049196906
35	0x3da64bbe	0.081199154
36	0x3d97ca5e	0.07411645
37	0x3d92063f	0.071300976
38	0xbd927ce2	-0.07152726
39	0xbd484e72	-0.048902936
40	0xbccea30c	-0.025224231
41	0x3c99f0e7	0.018791629
42	0x3c8131d7	0.015770836
43	0xbd12f2e5	-0.035876174
44	0x3caa2d30	0.0207735
45	0xbcacc3b3	-0.02108941
46	0xbd3d5af2	-0.04622931
47	0x3ccba8c2	0.024860743
48	0x3c616de2	0.013759108
49	0x3d14d425	0.03633513
50	0xbd3ed8a9	-0.046593342
51	0xbd5aba1d	-0.053400148
52	0x3c715e5b	0.014731969
53	0xbc734f65	-0.014850472
54	0x3cf44400	0.029817581
55	0x3d31f48c	0.04344611
56	0xbd2d95a8	-0.04237905
57	0xb9cd3533	-0.00039140283
58	0xbcc08f1f	-0.023505745
59	0x3cfe006f	0.031006066
60	0xbc88aef9	-0.016684996
61	0xbda754ff	-0.081705086
62	0x3d028ffa	0.031875588
63	0xbdb57caa	-0.088616684
64	0xbd01d675	-0.031698663
65	0x3d97f20a	0.07419212
66	0x3cebb442	0.028772477
67	0xbc8263f5	-0.015916804
68	0x3dcfc2af	0.10144555
69	0x3d74448a	0.059635676
70	0xbc15891a	-0.009126926
71	0x3dab3a21	0.083606966
72	0x3d6ec370	0.058291852
73	0x3d931034	0.07180825
74	0x3c5d07c0	0.013490617
75	0xbcf18d82	-0.029486421
76	0x3d629e9f	0.055327054
77	0x3cedb24d	0.029015685
78	0xbd92a6f8	-0.07160753
79	0xbd867bb0	-0.0656656
80	0xbd9564cf	-0.07294618
81	0xba9aaa05	-0.0011799937
82	0x3d222363	0.03958453
83	0xbb749cfc	-0.0037325015
84	0x3cd06509	0.025438802
85	0xbc4273c4	-0.011868421
86	0x3d40ebeb	0.04709999
87	0xbd64c4fc	-0.05585192
88	0x3d2d44e7	0.04230204
89	0xbc58084a	-0.01318557
90	0xbd4188a1	-0.04724944
91	0x3d9f21d2	0.077701226
92	0x3db5f81e	0.08885215
93	0x3d028182	0.03186179
94	0x3d2dd8ff	0.04244327
95	0xbceaa211	-0.028641732
96	0xbd9b5513	-0.07584586
97	0x3db4a735	0.08820955
98	0xbc8e5a4d	-0.017377043
99	0xbda4f8a2	-0.080552354
100	0xbd39301f	-0.045211907
101	0x3d10bb35	0.035334785
102	0xbdf4d68c	-0.11954984
103	0xbc5d1245	-0.013493125
104	0x3da4382d	0.08018527
105	0x3b641d59	0.0034807532
106	0x3d525616	0.05135163
107	0xbdbead54	-0.093104035
108	0x3cc021f0	0.023453683
109	0x3cb00f51	0.021491678
110	0x3dcef91d	0.10106108
111	0xbcd21ad5	-0.02564756
112	0xbdaeb96c	-0.0853146
113	0xbd528021	-0.051391724
114	0x3da8a63d	0.082348324
115	0x3d66bb3f	0.056330916
116	0x3d54d962	0.051965125
117	0x3d999355	0.074988045
118	0x3d7249e3	0.059152495
119	0x3d116dc5	0.035505075
120	0x3dbdd138	0.09268421
121	0x3d8cf5f9	0.06882853
122	0x3c90bdeb	0.017668685
123	0xbc935492	-0.017984662
124	0xbc66c1cf	-0.0140842935
125	0xbd714b28	-0.058909565
126	0x3c419e13	0.011817473
127	0xbd31c59c	-0.043401346
128	0xbb144ad1	-0.0022627602
129	0xbbc195d8	-0.0059077553
130	0xbd39a081	-0.045319084
131	0xbc41451a	-0.01179626
132	0x3d97df9e	0.074156985
133	0xbdb79094	-0.08963123
134	0x3c2a6b28	0.010401525
135	0x3d5b92cb	0.05360679
136	0x3d0d518b	0.034501594
137	0x3da7a736	0.0818619
138	0xbbdc1aa2	-0.006717042
139	0x3d119ba5	0.035548825
140	0x3c2646e9	0.010148742
141	0x3d47ef04	0.048811927
142	0xb964b8d8	-0.00021812634
143	0x3dfa1673	0.12211313
144	0x3d8a3ee9	0.067502804
145	0xbd86290d	-0.065507986
146	0xbcf7c1d9	-0.030243801
147	0x3cf454f8	0.029825673
148	0x3cb0394a	0.021511693
149	0xbd9f7d33	-0.07787552
150	0xbd14a34f	-0.036288556
151	0x3d72d730	0.05928725
152	0xbd5b91d3	-0.053605866
153	0x3d6cef97	0.05784568
154	0x3d22d906	0.03975775
155	0x3d05db63	0.032679927
156	0xbd115e20	-0.035490155
157	0x3d52948b	0.051411193
158	0x3d3baa92	0.045816965
159	0xbd7358fa	-0.059411027
160	0x3d47cb79	0.04877803
161	0xbcdcee69	-0.026969152
162	0xbd31ae96	-0.04337939
163	0x3d9a02e9	0.07520086
164	0xbdae40d6	-0.0850846
165	0x3ad08421	0.0015908518
166	0x3b92eff5	0.0044841715
167	0xbc777e66	-0.015105819
168	0x3cedb97e	0.029019114
169	0x3d8b265e	0.06794427
170	0xbcae36b0	-0.021266311
171	0x3d88fe80	0.06689167
172	0xbd6e3ea4	-0.058165208
173	0xbc16c386	-0.00920189
174	0x3ccdad82	0.025107149
175	0xbc97b3c2	-0.018518332
176	0xbd7e1c8d	-0.062038947
177	0x3d1fe1a9	0.039033566
178	0xbcb4c130	-0.022064775
179	0x3db8f7a9	0.090316124
180	0xbd359e15	-0.044340212
181	0xbdad6d34	-0.084680945
182	0xbd861555	-0.065470375
183	0x3c99671e	0.018725928
184	0xbd51bcb6	-0.05120536
185	0x3d79c17c	0.060975537
186	0x3d450fef	0.0481109
187	0x3d566319	0.0523406
188	0xbd132e78	-0.035932988
189	0xbc8a10fd	-0.016853804
190	0xbcd720ef	-0.026260821
191	0xbcbc9dff	-0.023024557
192	0xbdc359ad	-0.09538589
193	0xbc662fc5	-0.014049475
194	0xbcde35af	-0.027125208
195	0xbd888e73	-0.06667795
196	0x3ca77d5a	0.020445514
197	0x3d8a3b05	0.06749538
198	0x3d3acc87	0.04560521
199	0x3d9743a9	0.07385952
200	0x3cc8eb83	0.024526363
201	0xbd474778	-0.048652142
202	0x3cd0716d	0.02544471
203	0xbcec7a32	-0.028866861
204	0x3cc12403	0.023576742
205	0x3d2ec24c	0.042665765
206	0x3c455124	0.012043271
207	0xbcbb8e00	-0.02289486
208	0x3d629652	0.055319138
209	0xbd669dd3	-0.056302857
210	0x3d714d9c	0.058911905
211	0xb81b0187	-3.6956302e-05
212	0xbd299582	-0.041402347
213	0x3d3a7250	0.045519173
214	0x3d087408	0.03331378
215	0xbd7b011e	-0.061280362
216	0x3d695952	0.056969948
217	0x3d9bde9c	0.07610819
218	0xbd736020	-0.059417844
219	0xbd70fa78	-0.058832616
220	0xbd9e5311	-0.077306874
221	0xbd7292d7	-0.05922207
222	0x3d9aefb1	0.07565249
223	0x3da03c91	0.07824052
224	0xbda9bf94	-0.08288494
225	0xba90408a	-0.0011005562
226	0x3d3c25bb	0.04593442
227	0x3d6de31a	0.05807791
228	0x3cea7818	0.028621718
229	0xbcf9b575	-0.030482033
230	0x3d79c9ab	0.06098334
231	0xbd885480	-0.06656742
232	0xbd81cf9a	-0.06338425
233	0x3cddc475	0.027071217
234	0x3cb7d1cc	0.022438906
235	0x3d282bcf	0.041057404
236	0xbd125614	-0.03572662
237	0x3b88ad36	0.004171039
238	0x3c7fbe9b	0.015609409
239	0xbcdc04d7	-0.026857777
240	0xbcb73f80	-0.022369146
241	0xbd910dbc	-0.07082698
242	0x3a9b34a9	0.0011841255
243	0xbdc9a6a0	-0.09846234
244	0xbd3566a2	-0.04428733
245	0xbd355092	-0.04426629
246	0x3d0471b7	0.03233501
247	0x3de475f7	0.111553125
248	0x3d7d9f0f	0.06191927
249	0xbd463159	-0.048386905
250	0xbab485af	-0.0013772751
251	0x3b62ced9	0.0034608154
252	0xbd4dad44	-0.050214067
253	0x3d825279	0.06363387
254	0xbc3722db	-0.011177744
255	0xbd9dcf30	-0.077055335

net.2.bias f4 [128]
0	0xbb3c6eef	-0.0028752645
1	0xbbdee6c8	-0.0068024136
2	0x3bbcf9bc	0.0057670753
3	0xbb35c0a0	-0.0027733222
4	0xbd27f710	-0.0410071
5	0xbd156d2a	-0.03648106
6	0x3c8a9186	0.016915094
7	0x3cdea1df	0.027176796
8	0xbd6e9a2d	-0.058252502
9	0x3d4246cd	0.047430802
10	0x3d1b964d	0.037985135
11	0xbd7d09df	-0.061776992
12	0x3c65f93d	0.014036474
13	0x3d9f26bf	0.07771062
14	0x3d2ef218	0.042711347
15	0xbd1aec0b	-0.037822764
16	0x3cfa581b	0.03055959
17	0x3d850bb5	0.064963736
18	0x3cbaf900	0.02282381
19	0xbd1ea4b8	-0.038731307
20	0x3d682a30	0.056680858
21	0xbc28b332	-0.01029663
22	0x3d83a9ba	0.06428857
23	0xbcf6c984	-0.030125387
24	0x3d0c628a	0.03427366
25	0x3d3e7efb	0.046507817
26	0x3d9c3df4	0.07629004
27	0x3da60978	0.08107275
28	0x3ca7ff6e	0.02050754
29	0xbd57489c	-0.05255948
30	0xbd9e647a	-0.07734008
31	0xbcbfed6d	-0.023428643
32	0xbd9cc34f	-0.0765444
33	0x3d044b08	0.032298118
34	0xbd5d3fff	-0.05401611
35	0x3c2bb957	0.0104812
36	0x3dac6660	0.08417964
37	0x3a0274c1	0.0004976504
38	0xbd77fcf8	-0.060543984
39	0xbdc529fc	-0.096271485
40	0x3cd5fd1d	0.02612167
41	0xbd407716	-0.04698857
42	0xbda42bad	-0.08016143
43	0xbd954e7b	-0.072903596
44	0x3d22842c	0.03967683
45	0x3d434f0c	0.047682807
46	0xbc7d99da	-0.015478576
47	0xba6b2597	-0.000897014
48	0x3cb2e532	0.021837804
49	0xbc8619af	-0.016369669
50	0xbd9003f6	-0.070320055
51	0x3dabf0f4	0.083955675
52	0x3d5322ea	0.05154697
53	0xbd995935	-0.07487718
54	0xbd042a7d	-0.032267082
55	0xbd1aace7	-0.03776255
56	0x3bf1b568	0.0073763616
57	0xbd291626	-0.041280888
58	0x3bb55e73	0.005534941
59	0x3cad3f51	0.021148356
60	0x3c77121f	0.015080004
61	0x3cc33c8c	0.023832582
62	0xbd284f1b	-0.041091066
63	0x3c504014	0.01271059
64	0x3c22b67a	0.009931201
65	0x3d7dc528	0.0619556
66	0xbd00d59e	-0.03145372
67	0x3d9df575	0.07712833
68	0x3bc41098	0.0059834234
69	0xbd2b8541	-0.041875128
70	0xbd68a66c	-0.056799337
71	0x3d6f7e19	0.058469865
72	0xbd9c3fa9	-0.0762933
73	0xbd21a5d5	-0.03946479
74	0x3bf31641	0.0074184244
75	0xbbeace7f	-0.0071657295
76	0xbd0eecca	-0.03489379
77	0xbbd03773	-0.0063542663
78	0xbd092639	-0.033483718
79	0x3ca9234e	0.020646717
80	0xbd2a0c02	-0.041515358
81	0x3d100c9a	0.035168268
82	0x3cce865b	0.02521055
83	0xbb0140f0	-0.0019722544
84	0x3d590794	0.052985743
85	0x3d3fbc3c	0.046810374
86	0x3d831ae1	0.06401611
87	0x3c9e1a6b	0.019299706
88	0x3d210549	0.03931168
89	0x3d2c0aa5	0.04200234
90	0xbd735f6e	-0.05941718
91	0x3c45f1fd	0.01208162
92	0x3d39c52b	0.04535405
93	0x3db182f8	0.086675584
94	0x3d783011	0.060592715
95	0x3d043f49	0.032286916
96	0xbdb42536	-0.0879616
97	0xbd054113	-0.032532763
98	0x3c8fb7ec	0.017543755
99	0xbd281fae	-0.041045837
100	0xbccd8d7f	-0.025091885
101	0xbcf9e0d5	-0.030502716
102	0x3daea573	0.08527651
103	0x3bc5431f	0.0060199643
104	0xbce340c9	-0.027740853
105	0x3c9881e2	0.01861662
106	0xbca4e647	-0.020129336
107	0x3d38b57d	0.045094956
108	0xbd602b0d	-0.054728556
109	0xbd3f277b	-0.04666851
110	0xbdc29ef7	-0.095029764
111	0x3d8c1c49	0.068413325
112	0xbd4211da	-0.047380306
113	0x3d4ed65e	0.050497405
114	0xbcc88d81	-0.024481537
115	0xbb2c070e	-0.0026249322
116	0xbd3d9c88	-0.046291858
117	0x3d8cdf32	0.068785086
118	0x3c8e883d	0.017398948
119	0xbc6e8be7	-0.0145597225
120	0xbcea420c	-0.028595947
121	0xbb850f7d	-0.0040606842
122	0xbd831a27	-0.064014725
123	0xbd86817f	-0.06567668
124	0xbd3ac6c0	-0.0455997
125	0x3db367ba	0.08760019
126	0x3d48a2df	0.04898345
127	0x3ca34804	0.0199318

net.4.weight f4 [1, 128]
0	0x3daa1d2c	0.08306345
1	0xbd3b1061	-0.045669917
2	0xbdbc9895	-0.0920879
3	0x3d6c97f8	0.057762116
4	0x3d75323b	0.059862357
5	0x3d92473e	0.071424946
6	0x3d6b781f	0.057487603
7	0xbd601dac	-0.054715797
8	0x3d5b800a	0.053588904
9	0x3dc83661	0.09775997
10	0x3d864fbe	0.06558178
11	0xbdae471e	-0.08509658
12	0xbbce723c	-0.006300239
13	0x3c8de99f	0.017323313
14	0xbbedf435	-0.0072617778
15	0xbdedd723	-0.116133
16	0xbd35eae9	-0.04441348
17	0xbdb7f780	-0.08982754
18	0xbd371a4c	-0.044702813
19	0xbd1bbc55	-0.038021404
20	0xbd947ed0	-0.0725075
21	0x3d961423	0.073280595
22	0x3c199fb9	0.00937646
23	0x3e057e43	0.13036446
24	0xbd59d6e5	-0.053183455
25	0xbce8cc37	-0.02841769
26	0x3d8e9b4c	0.06963214
27	0x3cc93364	0.024560638
28	0x3c459ae2	0.012060853
29	0x3ccd200d	0.025039697
30	0xbd863b6a	-0.06554301
31	0xbd4574fe	-0.048207276
32	0x3da15b5d	0.07878754
33	0x3d5c0a50	0.053720772
34	0xbcadeef1	-0.0212321
35	0xbd70634b	-0.058688443
36	0x3d0adbe0	0.033901095
37	0x3d4ca79e	0.04996454
38	0xbe0532be	-0.13007638
39	0xbcf8b7ba	-0.030361045
40	0xbd9e8dcf	-0.077418916
41	0xbd28128a	-0.041033305
42	0x3d83c7ad	0.064345695
43	0xbd9dddf0	-0.07708347
44	0x3dce01d8	0.100589454
45	0xbd98dcf8	-0.074640214
46	0xbdc59d52	-0.09649147
47	0xbce284ea	-0.027651269
48	0x3da2d9cf	0.079517
49	0xbd961e9b	-0.07330056
50	0xbd77f948	-0.060540468
51	0x3d151fa5	0.03640713
52	0xbceca61a	-0.028887797
53	0xbd866716	-0.06562631
54	0x3da2ecf9	0.07955355
55	0xbdcfeb26	-0.10152273
56	0x3d0bbac5	0.034113664
57	0xbd13249f	-0.035923596
58	0xbdd7e947	-0.10542541
59	0xbd0fb9bd	-0.035089243
60	0x3d9d951c	0.07694456
61	0x3c15ea57	0.009150109
62	0x3d8fe38c	0.07025823
63	0x3d9f985a	0.07792731
64	0x3d49d681	0.049276832
65	0xbcd6eb1a	-0.026235152
66	0x3dc39eeb	0.095517956
67	0x3d5fda97	0.054651823
68	0x3ccb6e8d	0.024832988
69	0xbd591ddd	-0.053006995
70	0x3d79f2a6	0.061022423
71	0xbd2c62da	-0.04208646
72	0xbd5bd91d	-0.053673852
73	0x3ca75731	0.020427318
74	0x3db3d577	0.087809496
75	0xbdbc8372	-0.09204759
76	0xbd965a91	-0.07341493
77	0x3dbfdd30	0.0936836
78	0x3d786ac3	0.06064869
79	0xbdcf8163	-0.101321004
80	0x3d6000a2	0.054688103
81	0x3d840164	0.06445578
82	0xbc8f2e49	-0.017478125
83	0xbcbac6a3	-0.022799795
84	0xbe01420b	-0.1262285
85	0xbc920031	-0.017822357
86	0x3c6e7362	0.014553877
87	0xbc85ec7a	-0.016348112
88	0xbc1dc86d	-0.009630305
89	0x3da1588a	0.078782156
90	0x3c6bb6e7	0.014386869
91	0xbd787dcb	-0.06066684
92	0x3dbb06b5	0.09132139
93	0x3de1fe2e	0.11034809
94	0xbda35b9a	-0.07976456
95	0x3cd5a113	0.026077783
96	0x3da1c505	0.078989066
97	0xbd41d9c6	-0.047326826
98	0x3d9afd91	0.07567895
99	0x3d0d10ac	0.034439728
100	0xbd140196	-0.036134325
101	0xbd900772	-0.0703267
102	0xbd27e5a1	-0.040990476
103	0xbcbe7bf7	-0.02325247
104	0x3d7179a0	0.05895388
105	0x3d1a502b	0.03767411
106	0x3d737fa5	0.059447903
107	0x3d3d81bc	0.046266302
108	0x3d6dbb11	0.05803973
109	0x3d948b81	0.07253171
110	0xbc9073cc	-0.017633341
111	0xbd7d4cd6	-0.061840855
112	0x3ddeadf7	0.10873025
113	0xbd8b155e	-0.06791185
114	0x3dd5df6c	0.10443005
115	0x3b632d92	0.0034664613
116	0xbd4fa0b1	-0.050690357
117	0x3db67737	0.08909457
118	0x3d9c9025	0.07644681
119	0xbd6996f9	-0.057028744
120	0x3db23586	0.08701615
121	0xbdba3f88	-0.09094149
122	0xbdfe1a35	-0.12407342
123	0x3ddeceb9	0.10879273
124	0xbdf98d64	-0.12185171
125	0xbd13e6cb	-0.036108773
126	0xbd099d8e	-0.03359752
127	0xbc714401	-0.014725686
