Configuration 1/dqn_q_net.pth (torch, 657052 bytes, 6 tensors)

net.0.weight f4 [512, 189]
0	0xbb558bb1	-0.0032584483
1	0xbdc61a71	-0.09673012
2	0xbd6b95ce	-0.05751591
3	0xbd2aba8c	-0.04168181
4	0x3d8e7621	0.06956125
5	0x3c6c4297	0.014420173
6	0xbd4ac625	-0.04950537
7	0xbd488c68	-0.048962027
8	0x3c457e4d	0.012054038
9	0xbd75d45e	-0.060016982
10	0x3bdd50de	0.006754025
11	0xbd9c213a	-0.07623525
12	0xbc292f74	-0.010326255
13	0xbd81998d	-0.063281156
14	0x3d25d6be	0.040487997
15	0x3dbcad84	0.09212783
16	0xbda1af7b	-0.07894798
17	0x3dd7689b	0.10517999
18	0xbc8aa5f0	-0.016924828
19	0x3b9e4bd8	0.0048308186
20	0xbd18c550	-0.037297547
21	0xbdc95e75	-0.098324694
22	0xbdea334d	-0.11435566
23	0xbd931565	-0.07181815
24	0x3b83824a	0.0040133344
25	0xbe05ebec	-0.13078278
26	0xbdd4548a	-0.10367687
27	0xbcabe339	-0.020982372
28	0x3e7f5c19	0.24937476
29	0x3eaaeb27	0.33382532
30	0x3e3d2241	0.18470098
31	0xbdc7b68f	-0.09751617
32	0x3c1590ec	0.00912879
33	0x3eb7d796	0.35906667
34	0xbe40ebf4	-0.18840009
35	0xbce0b253	-0.027428782
36	0x3f613a25	0.87979347
37	0x3d3ac4e3	0.045597922
38	0x3eeafcda	0.45896035
39	0x4010d9be	2.26329
40	0xbca8772a	-0.020564634
41	0x3f5b2c7b	0.85614747
42	0xbe88f91f	-0.26752564
43	0xbf0322a1	-0.51224715
44	0xbed45d69	-0.41477516
45	0xbe809563	-0.25113973
46	0xbf0bf7a6	-0.54674757
47	0xbf1067ee	-0.56408584
48	0xbe67c0da	-0.22632161
49	0xbef3dcb2	-0.47629315
50	0xbe8d05d6	-0.27543515
51	0xbcf35a0d	-0.029706025
52	0x3dc381b8	0.09546226
53	0xbe8e3db9	-0.27781466
54	0x3c97d48c	0.018533967
55	0x3d9fcd84	0.07802871
56	0xbec32868	-0.38116765
57	0x3e4ddd0c	0.20103854
58	0x3e4552fc	0.19269937
59	0xbe17b39f	-0.14814614
60	0x3ed914c7	0.42398664
61	0x3e80f685	0.2518808
62	0x3e158c1a	0.14604226
63	0xbdabc8f3	-0.083879374
64	0xbd62bf62	-0.055358298
65	0xbdde2eae	-0.10848747
66	0x3b82f30c	0.0039962586
67	0xbc94cef8	-0.018165097
68	0x3e1aab3f	0.15104388
69	0xbd6a27aa	-0.057166733
70	0xbeaf3067	-0.34216616
71	0x3d6892d6	0.05678066
72	0xbdfb572a	-0.122724846
73	0x3f5d391b	0.8641526
74	0xbe8c0546	-0.27347773
75	0x3e2713a2	0.16316083
76	0x3a79a80c	0.0009523637
77	0xbe14bff6	-0.14526352
78	0xbda26beb	-0.0793074
79	0xbee462f6	-0.4460675
80	0xbe40c7f0	-0.1882627
81	0xbe96a513	-0.29422817
82	0x3ea71b4a	0.32638007
83	0x3f04b201	0.5183411
84	0xbe929297	-0.28627464
85	0x3c4f9abe	0.012671171
86	0xbd114380	-0.035464764
87	0x3ebe3671	0.3715091
88	0xbe92cd3a	-0.286722
89	0xbe88ce03	-0.26719674
90	0x3fd4f2f4	1.6636643
91	0xbd227d96	-0.03967055
92	0xbe9c2cb1	-0.30502847
93	0x3ec07eb5	0.3759667
94	0x3d6bb0ac	0.057541534
95	0xbda93d95	-0.08263699
96	0xbd5c390b	-0.053765338
97	0x3f6e2ff4	0.9304192
98	0xbf163b52	-0.58684266
99	0xc04c1975	-3.1890538
100	0x3e86a94f	0.26301047
101	0xc058f39e	-3.3898692
102	0xc0151f0d	-2.3300202
103	0x3f232920	0.63734627
104	0xc00af96e	-2.171474
105	0xc010d264	-2.2628412
106	0x3fc3b2b9	1.5288917
107	0xbfa8f3db	-1.3199419
108	0xbdb51536	-0.08841936
109	0x3d36f363	0.044665705
110	0x3ddff761	0.10935856
111	0x3cca0cec	0.024664365
112	0xbe435cdb	-0.1907839
113	0x3ed084bc	0.40726268
114	0x3c29abf0	0.0103559345
115	0xbe76ff02	-0.24120715
116	0xbe9c4513	-0.3052145
117	0xbd93cb70	-0.07216537
118	0x3dca004e	0.09863339
119	0xbed94a8c	-0.42439687
120	0xbed63c0e	-0.41842693
121	0x3c51f5b8	0.012814932
122	0xbec95228	-0.39320493
123	0x3e45651c	0.19276851
124	0xbdf2d2c6	-0.11856608
125	0x3ecffd8c	0.40623128
126	0x3f0b2c04	0.5436404
127	0xbf2e7cc6	-0.6815914
128	0x3ea1caa7	0.31599924
129	0xbe84e865	-0.25958553
130	0xbf57ddad	-0.84322625
131	0xbed11adf	-0.40840814
132	0xbefd535f	-0.4947767
133	0x3f42e3d5	0.76128894
134	0xbd002934	-0.031289294
135	0xbd68b292	-0.056810923
136	0xbe8e2e5a	-0.27769738
137	0xbebb1070	-0.36535978
138	0xbe364475	-0.17799552
139	0x3d7141f6	0.058900796
140	0xbdd0806e	-0.10180746
141	0xbee550ee	-0.44788307
142	0x3d6becdd	0.057598937
143	0x3e4f2650	0.20229459
144	0xbd596193	-0.05307157
145	0x3bccbf7a	0.0062484117
146	0xbe154114	-0.14575607
147	0x3c13b2f1	0.009014831
148	0x3bf29038	0.007402446
149	0x3d6a60ba	0.057221152
150	0x3e5f5566	0.2180992
151	0xbf234d22	-0.6378957
152	0x3e2620de	0.16223475
153	0x3dcb58fa	0.0992908
154	0xbda8ec50	-0.08248198
155	0xbdcc7e2c	-0.09985003
156	0xbde020df	-0.1094377
157	0xbf108cb7	-0.56464714
158	0xbe0e6c93	-0.13908605
159	0x3cfd4e45	0.03092111
160	0xbd8db0cd	-0.06918488
161	0xbe19eeaf	-0.15032457
162	0x3ea3427c	0.3188666
163	0x3caa1181	0.0207603
164	0xbe993cca	-0.2992919
165	0x3c727041	0.014797271
166	0x3bfa65f1	0.007641547
167	0x3cecf9fa	0.028927792
168	0x3d456ee2	0.04820145
169	0xbd8267ad	-0.06367431
170	0x3d34b805	0.044120807
171	0xbdc620d9	-0.09674234
172	0x3c533965	0.012892102
173	0x3eb870ee	0.3602366
174	0xbc8f256f	-0.017473904
175	0x3e0e4607	0.13893901
176	0x3c5dbc23	0.013533625
177	0x3d7fa56b	0.062413614
178	0xbcaef1c6	-0.021355521
179	0x3d690402	0.056888588
180	0x3dd0b35f	0.10190462
181	0x3e3337bf	0.17501734
182	0xbe7e0ce0	-0.24809599
183	0xbe09fdc4	-0.1347571
184	0xbf76330a	-0.9617163
185	0x3b14fbb4	0.0022733035
186	0x3e0fd616	0.14046511
187	0x3efb61fc	0.49098194
188	0xbdc6ab31	-0.09700621
189	0xbc86d1b8	-0.016457424
190	0xbd0d48c8	-0.034493238
191	0x3d0b9d82	0.034085758
192	0x3cb81321	0.022470059
193	0x3d3ac0f8	0.045594186
194	0xbcf6df9b	-0.03013592
195	0xbd6530ee	-0.055954866
196	0x3bd9fc28	0.006652374
197	0x3d4aa2f4	0.04947181
198	0xbd0eef54	-0.03489621
199	0x3d9ac930	0.07557905
200	0x3d770932	0.060311504
201	0x3d58eab8	0.05295822
202	0xbcc82b31	-0.024434658
203	0xbc86564c	-0.016398571
204	0xb9b4260f	-0.0003436063
205	0xbd78b1c9	-0.060716424
206	0x3cf6992a	0.030102331
207	0x3d8c9048	0.06863457
208	0x3d9d30a4	0.07675293
209	0xbd190874	-0.037361577
210	0xbc4040b0	-0.011734173
211	0xbc9e4f38	-0.019324884
212	0x3cf1071f	0.02942234
213	0x3da4d995	0.08049313
214	0x3d8f52f6	0.069982454
215	0x3da6ec7f	0.08150577
216	0x3d7d3555	0.06181844
217	0xbd909b5b	-0.07060882
218	0x3cf1c32b	0.029512009
219	0xbd259f12	-0.040434904
220	0xbd08f71b	-0.033438783
221	0x3cca3da6	0.0246876
222	0x3cd6dc3d	0.026228065
223	0xbd5944b9	-0.053044055
224	0x3d2eae28	0.042646557
225	0xbcb701cc	-0.022339724
226	0x3d762645	0.06009509
227	0x3bc0cc86	0.005883756
228	0xbc18564d	-0.009297919
229	0xbcd58904	-0.02606631
230	0xbd4020b4	-0.046906188
231	0x3d51425d	0.05108868
232	0xbd0bbe52	-0.03411705
233	0x3d5284d0	0.05139619
234	0xbd611930	-0.05495566
235	0x3cd1ac33	0.025594806
236	0xbd7be463	-0.061497103
237	0xbcfdba93	-0.030972755
238	0x3d874170	0.06604278
239	0xbd250012	-0.04028327
240	0x3d848b34	0.064718634
241	0x3d218c2e	0.039440326
242	0xbb192472	-0.002336767
243	0x3d7eeae3	0.062235724
244	0xbd53a5a6	-0.051671647
245	0x3c79ce0e	0.015246881
246	0xbd174f85	-0.03694107
247	0xbca1064f	-0.019656328
248	0xbcb83460	-0.022485912
249	0x3c234800	0.009965897
250	0xbcf103d1	-0.029420765
251	0x3bf58ad4	0.0074933562
252	0xbcc4717a	-0.023979891
253	0x3d667686	0.056265377
254	0xbd1f0d11	-0.03883082
255	0xbd3877a4	-0.045035973

net.0.bias f4 [512]
0	0xbd8a04dd	-0.06739209
1	0xbd00ef77	-0.03147837
2	0xbc05fb02	-0.008177521
3	0x3db0f00b	0.086395346
4	0x3da693d7	0.08133667
5	0x3bb63af6	0.005561228
6	0x3d0c91bb	0.034318667
7	0x3bb1251d	0.0054060356
8	0x3dc3f893	0.09568896
9	0xbc7810cb	-0.0151407225
10	0xbcf277ba	-0.029598106
11	0x3d0d8ff4	0.034561113
12	0x3d12c4bd	0.035832155
13	0x3d3c3b1b	0.045954805
14	0x3d98ccc3	0.0746093
15	0x3d5337da	0.051566936
16	0x3da3a69c	0.079907626
17	0x3da66108	0.08123976
18	0x3d1f95b7	0.03896114
19	0x3d3e3685	0.046438713
20	0xbc2f2e60	-0.010692209
21	0x3d848aa3	0.06471755
22	0x3c6d63cd	0.014489126
23	0x3d34bcbd	0.044125307
24	0x3d9570c9	0.07296903
25	0x3aa86550	0.0012847576
26	0x3dc3f8e2	0.09568955
27	0x3d466d42	0.04844404
28	0xbd602033	-0.054718208
29	0xbb9f6982	-0.0048648724
30	0x3de86042	0.11346485
31	0x3dce80fe	0.10083197
32	0x3de2ab2a	0.11067803
33	0x3c77cbd7	0.015124283
34	0x3c65518c	0.013996493
35	0x3d44c723	0.048041474
36	0x3db6fccb	0.08934935
37	0xbd4d6d79	-0.05015323
38	0xbd881a97	-0.066456966
39	0xbd56c862	-0.052437194
40	0x3cc9d5b5	0.024638036
41	0x3cc11008	0.023567215
42	0x3d623fc0	0.055236578
43	0x3d3e1e78	0.046415776
44	0x3d50f619	0.051015947
45	0x3d9fbd3f	0.07799768
46	0x3d731732	0.059348293
47	0xbd10bbe1	-0.035335425
48	0xbc95ba6d	-0.018277371
49	0xbceb4258	-0.028718159
50	0x3d652f24	0.05595316
51	0x3ca4e9b4	0.02013097
52	0x3bce15cd	0.00628922
53	0x3daacdcf	0.08340036
54	0x3d428b02	0.04749585
55	0x3dcbe9bf	0.09956693
56	0xbc7d8558	-0.015473686
57	0x3dbacb40	0.09120798
58	0x3c2f9adf	0.0107180765
59	0xbc1e76fa	-0.009671921
60	0xbdadb489	-0.084817
61	0x3d30d9aa	0.04317633
62	0xbc01a381	-0.0079125175
63	0x3c314008	0.010818489
64	0xbdaf90b2	-0.0857252
65	0xbca117fd	-0.019664759
66	0x3d9571f9	0.07297129
67	0x3d14a262	0.036287673
68	0x3dfdd638	0.123943746
69	0x3d68d5d0	0.056844532
70	0xbd2f9eff	-0.04287624
71	0xbd4f371e	-0.050589673
72	0xbcd26c67	-0.025686456
73	0x3bca0cd4	0.00616608
74	0x3d06bf9b	0.032897573
75	0x3d9152a3	0.0709584
76	0xbd0efacd	-0.03490715
77	0xbd07867c	-0.03308724
78	0xbd853d89	-0.065058775
79	0x3dae2e47	0.085049205
80	0xbd45ab0a	-0.04825882
81	0x3db19b32	0.08672179
82	0x3da32e09	0.07967765
83	0xbb11211c	-0.002214498
84	0x3daaac17	0.08333605
85	0x3c46a605	0.012124543
86	0x3b4183c7	0.0029528008
87	0x3dceea67	0.101033024
88	0x3d11a3e6	0.035556696
89	0x3c87278b	0.016498348
90	0xbb95ef09	-0.0045756144
91	0x3d5c1718	0.05373296
92	0xbd460cfb	-0.048352223
93	0x3dbd211a	0.09234829
94	0xbd03996a	-0.03212873
95	0x39a59c48	0.0003158769
96	0xbb7ac48c	-0.0038264124
97	0xbd79d2ac	-0.060991928
98	0xbd4f3b6b	-0.050593775
99	0xba2948e1	-0.0006457698
100	0xbd65063b	-0.055914145
101	0xbc1d8e7f	-0.009616493
102	0xbb6a350e	-0.003573719
103	0xbcdf9bd6	-0.027295988
104	0x3d4ea8ff	0.050454136
105	0xbd5d5ae7	-0.05404177
106	0x3d3c8d04	0.04603292
107	0x3dc4e459	0.09613866
108	0x3d591a71	0.053003732
109	0xbd88ad43	-0.06673672
110	0x3d63b1e3	0.055589568
111	0x3c5c3ac1	0.013441742
112	0x3ca84e18	0.02054505
113	0xbd605387	-0.054767158
114	0x3cacbab2	0.021085117
115	0x3bac80b8	0.005264368
116	0x3b18374f	0.0023226326
117	0x3d4558ef	0.048180517
118	0x3d06fea9	0.032957707
119	0x3d4c88ec	0.049935266
120	0xbd120530	-0.03564948
121	0x3cd94e43	0.026526576
122	0xbcce703a	-0.025199998
123	0x3da3512a	0.07974465
124	0x3d848610	0.06470883
125	0xbbc29dac	-0.005939206
126	0x3db55b77	0.08855336
127	0x3d8486fa	0.06471057
128	0x3d918e36	0.07107203
129	0xbd1ddb25	-0.03853907
130	0x3dc98f09	0.09841735
131	0x3cf46cef	0.0298371
132	0x3d9bbf0e	0.076048
133	0xbd4957f2	-0.049156137
134	0x3d90e788	0.07075411
135	0xbd8ff624	-0.070293695
136	0xbc1a8ee4	-0.009433482
137	0x3bab5e97	0.005229782
138	0x3caf7617	0.021418614
139	0x3d252910	0.040322363
140	0xb9905498	-0.00027528848
141	0x3aac7e4c	0.0013160198
142	0x3dc42ed9	0.09579248
143	0xbca08e65	-0.019599149
144	0x3d423abb	0.04741929
145	0x3d84c1d3	0.064822815
146	0xbcf26b65	-0.029592225
147	0x3c6359bb	0.013876374
148	0x3d381e9c	0.044951066
149	0x3bcac777	0.006188329
150	0xbd1e837b	-0.03869961
151	0xbaf1713a	-0.0018420585
152	0x3d4d1a49	0.050073896
153	0xbd5cd109	-0.05391029
154	0x3da9bed2	0.08288349
155	0xbba50a60	-0.005036637
156	0xbd13b65c	-0.036062583
157	0x3d0b3c97	0.03399333
158	0x3d3a507e	0.04548692
159	0x3cfecfd0	0.031104952
160	0xbbb5dc5f	-0.005549952
161	0x3dc9db78	0.098563135
162	0xbd51be05	-0.051206607
163	0xbd2f0ac4	-0.042734876
164	0xbcdf3fe9	-0.027252154
165	0xba82344b	-0.0009933797
166	0x3cf37cc7	0.029722584
167	0x3dd395ca	0.10331304
168	0x3d3649cf	0.044503983
169	0x3d82f5de	0.06394552
170	0xbc631774	-0.013860572
171	0x3d8f8206	0.07007222
172	0x3d2fc9cd	0.04291706
173	0x3cc8e0db	0.024521282
174	0xbc749169	-0.014927247
175	0xbd8817a0	-0.06645131
176	0xbcba5b4d	-0.022748614
177	0x3d5ace27	0.05341926
178	0x3cb1ed0c	0.021719478
179	0x3da7b211	0.0818826
180	0x3d3a4dba	0.045484282
181	0xbd697a67	-0.057001498
182	0x3d3599b2	0.04433603
183	0xbd987742	-0.074446216
184	0xbd2e8857	-0.042610493
185	0x3d23feed	0.040038038
186	0xbda03b85	-0.078238524
187	0x3d6e4d4f	0.058179196
188	0x3c2fe239	0.010735088
189	0x3db11419	0.086464114
190	0x3c59ea8c	0.013300549
191	0x3c80393c	0.015652291
192	0x3d6a0b0a	0.057139434
193	0xbd01a32d	-0.031649757
194	0x3d2e74ab	0.042591732
195	0xbcb98687	-0.022647155
196	0x3daffe26	0.08593397
197	0xbc6ea539	-0.014565759
198	0x3c9a5ebd	0.018844003
199	0x3c251b5f	0.010077327
200	0x3d42685d	0.04746281
201	0x3d97f8c9	0.07420499
202	0x3d07cc3c	0.033153757
203	0xbc77b1fb	-0.015118117
204	0x3c8dca39	0.017308341
205	0xbd3865b6	-0.045018874
206	0xbd494f21	-0.04914773
207	0xbcc1b0dd	-0.023643905
208	0x3c9c2b97	0.019063754
209	0x3c04b93e	0.008100806
210	0xbc3c53fa	-0.011494631
211	0x3c8b46b6	0.017001491
212	0xbcc78ebc	-0.024360053
213	0x3d7a3dfe	0.061094277
214	0x3d51526b	0.05110399
215	0x3d7382c7	0.05945089
216	0x3a9a002b	0.0011749318
217	0x3d024581	0.031804565
218	0xbd87d4d7	-0.06632393
219	0xbd8ea1b4	-0.06964436
220	0x3d17528f	0.03694397
221	0x3d85e7c2	0.06538345
222	0xbc7e917a	-0.015537614
223	0x3cb2a7c9	0.021808522
224	0x3d2646d6	0.0405949
225	0xbd79ed82	-0.06101752
226	0x3dba8d82	0.09109022
227	0x3dc3e610	0.09565365
228	0x3cb4453c	0.02200567
229	0xbd2a2d25	-0.04154696
230	0xbc78e6e9	-0.015191772
231	0xbd3382da	-0.04382596
232	0x3d9e7abb	0.07738253
233	0xbd07a95b	-0.033120494
234	0xbd2cefe7	-0.042220976
235	0x3da2e962	0.079546705
236	0xbaf9568d	-0.0019022987
237	0x3d8f4cf7	0.06997102
238	0x3db48a7f	0.088154785
239	0x3d595ab7	0.053065028
240	0x3c9986d8	0.018741056
241	0x3d761e8a	0.060087718
242	0x3d80707e	0.06271456
243	0x3dbb5540	0.091471195
244	0x3a7cb946	0.0009640645
245	0xbc63ef7a	-0.013912076
246	0x3daa9e6b	0.08330997
247	0xbd768a6a	-0.060190596
248	0x3d144961	0.036202792
249	0xbc43a509	-0.011941203
250	0x3d8ff0ed	0.07028375
251	0x3da8b1ea	0.082370594
252	0x3d4baa8c	0.049723193
253	0x3d53a2f4	0.051669076
254	0x3ddd6b78	0.10811514
255	0xbce43231	-0.027855964

net.2.weight f4 [128, 512]
0	0xbccab970	-0.024746627
1	0x3b916c60	0.004437968
2	0x3c7d323f	0.015453874
3	0xbc1c130c	-0.0095260255
4	0xbd0e961c	-0.034811124
5	0xbc60c3ee	-0.013718588
6	0xbc815eb7	-0.015792234
7	0x3c4bdf65	0.012443398
8	0x3c593ed5	0.013259609
9	0xbcdd9563	-0.027048772
10	0x3c627574	0.013821948
11	0x3d2d9159	0.042374942
12	0xbc6536a3	-0.013990077
13	0xbc400c95	-0.01172175
14	0xbd0eb269	-0.034838114
15	0xbc938605	-0.018008241
16	0xbcf54c87	-0.029943718
17	0x3ad4bb11	0.0016230067
18	0x3bf68ccb	0.007524108
19	0x3d28a866	0.041176222
20	0x3cc3b38e	0.02388933
21	0xbd0eb803	-0.034843456
22	0x3b98223f	0.0046427543
23	0xb8e92578	-0.00011117285
24	0x3c938550	0.018007904
25	0xbc8b5d2c	-0.017012201
26	0xbd2e7891	-0.04259545
27	0x3c80d14b	0.015724799
28	0x3cad6298	0.021165177
29	0x3bd2d0f4	0.0064336006
30	0x3ca0355a	0.01955669
31	0xbc8943a6	-0.01675589
32	0xbd33f615	-0.043935854
33	0xbce03b04	-0.02737189
34	0x3cc2dc95	0.023786822
35	0x3d19cafa	0.03754709
36	0xbcb241fc	-0.02175998
37	0x3d2f1667	0.042745974
38	0xbd1b41b1	-0.037904445
39	0x3cb335e8	0.02187629
40	0x3d18bcdc	0.037289485
41	0xbcb5a1b2	-0.022171829
42	0xbcb8514a	-0.0224997
43	0xbcc29d02	-0.023756508
44	0xbcfeb9d4	-0.03109447
45	0xbc05192d	-0.008123678
46	0xbd00366a	-0.031301893
47	0x3cd2cba6	0.025731873
48	0xbce0575b	-0.027385404
49	0x3af8149e	0.0018927043
50	0xbceb105e	-0.028694328
51	0xbc0288b2	-0.007967161
52	0xbd0187a1	-0.031623486
53	0x3d2642b9	0.040590975
54	0xbd121d94	-0.03567274
55	0xbcbef343	-0.023309356
56	0xbb021bbc	-0.0019852957
57	0x3afbfbc2	0.001922481
58	0xbce3c63f	-0.027804492
59	0x3a8f4d68	0.0010933103
60	0x3b0fc910	0.002193991
61	0x3cae6771	0.02128956
62	0xbc34efd3	-0.011043507
63	0xb64fe3af	-3.0977933e-06
64	0x3d16f9b3	0.036859225
65	0xbab89359	-0.0014081999
66	0xbd21fa02	-0.039545067
67	0xbbefb391	-0.007315107
68	0xbcdd60ce	-0.0270237
69	0x3cbb7dd5	0.02288715
70	0x3d2011bb	0.03907941
71	0xbd0ace68	-0.03388825
72	0x3be04f20	0.00684537
73	0x3d1e8303	0.03869916
74	0x3c09af70	0.008403644
75	0x3c875adc	0.016522817
76	0x3c0eb227	0.008709467
77	0xba921357	-0.001114468
78	0xbcd2e8a1	-0.025745692
79	0x3d1baa63	0.03800429
80	0x3cee4cdd	0.029089386
81	0x3d2b7bf6	0.041866265
82	0x3ceaae93	0.028647697
83	0xbcd8060f	-0.026370076
84	0xbc9148cd	-0.01773491
85	0xbb5b81f4	-0.0033494206
86	0xba8c72ca	-0.0010715362
87	0xbbe39be5	-0.0069460743
88	0x3cff8b47	0.031194342
89	0x3c47f392	0.012204068
90	0xbc1f1dd0	-0.009711698
91	0x3c9abd12	0.018888984
92	0xbc308644	-0.010774199
93	0xbd2e37c0	-0.042533636
94	0xbcb6a989	-0.022297638
95	0xbbb51ee4	-0.005527364
96	0x3c800225	0.015626023
97	0xba6289b7	-0.0008641737
98	0xbc8d9dd7	-0.017287178
99	0x3d0f757c	0.03502415
100	0x3ccf7067	0.025322152
101	0x3cf2b85b	0.029628923
102	0xbc3c15dc	-0.011479821
103	0x3c1d91e6	0.009617304
104	0xbd17c1e5	-0.037050147
105	0x3c8e4eed	0.01737162
106	0x3cda8978	0.026676878
107	0xbce85e4c	-0.028365277
108	0xbd224910	-0.03962046
109	0xbbc246f9	-0.0059288708
110	0x3cf4ecdc	0.0298981
111	0x3b2b3d70	0.002612915
112	0x3d30e941	0.0431912
113	0x3b2e965d	0.0026639916
114	0xba3560e0	-0.00069190376
115	0xbcf30e64	-0.029669948
116	0x3d1c1ee5	0.0381154
117	0x3ca1d7d9	0.019756244
118	0x3d1d27af	0.038367923
119	0xbd1f0800	-0.03882599
120	0x398acef2	0.00026475597
121	0xbd1c09da	-0.038095333
122	0x3ba41af0	0.005008094
123	0x3d1505d4	0.03638251
124	0xbd14ff2a	-0.036376156
125	0xba622a9c	-0.0008627565
126	0xbd163b5b	-0.0366777
127	0xbc80abf9	-0.015707003
128	0x3c89fec4	0.016845115
129	0xbc9f31f4	-0.019433
130	0x3d1dcbcd	0.038524438
131	0xbd0aaca6	-0.033856057
132	0x3c842aa1	0.016133608
133	0x3c666153	0.01406129
134	0x3b8be739	0.0042695072
135	0xbcf1cc89	-0.029516475
136	0xbd18ec9a	-0.037335016
137	0xbc9cd0df	-0.019142566
138	0xbd1ba0f0	-0.03799528
139	0xbcc3a05f	-0.023880182
140	0x3d2f6f50	0.042830765
141	0xbc63a988	-0.0138954
142	0xbd048f41	-0.03236318
143	0x3d21bbef	0.039485868
144	0x3cc4f642	0.024043206
145	0xbc31f8bf	-0.010862528
146	0x3c7b3444	0.015332285
147	0xbd2c0fc9	-0.04200724
148	0x3cfdb967	0.030972196
149	0xbc2e0ebb	-0.010623629
150	0xbcc67345	-0.024224887
151	0xbc84f885	-0.016231785
152	0x3cd2a306	0.025712501
153	0x3a5cae4c	0.0008418306
154	0x3d3129b9	0.04325268
155	0x3c3837de	0.0112437885
156	0x3cec0edc	0.02881568
157	0xbb86c5f3	-0.004112953
158	0xbcd3b9bf	-0.025845407
159	0x3c4fe853	0.012689668
160	0x3c43ef42	0.011958899
161	0xbaea5f3f	-0.0017881169
162	0x3d22beee	0.039732866
163	0x3b526ed7	0.0032109523
164	0xbccd1557	-0.02503459
165	0xbca6220b	-0.020279905
166	0x3c29e596	0.010369679
167	0x3cbf55ce	0.023356345
168	0x3cee2e42	0.029074792
169	0x3c6892ca	0.0141951535
170	0x3d343f6c	0.044005796
171	0xbd187ec6	-0.037230276
172	0x3cb044a6	0.02151711
173	0x3cb4aae2	0.02205414
174	0x3d23c870	0.039986074
175	0x3d2dfa56	0.042475067
176	0xbc5ed3f0	-0.0136003345
177	0x3c8093fc	0.015695564
178	0xbcbe44dd	-0.023226196
179	0x3b533803	0.003222943
180	0x3d1bafe8	0.038009554
181	0xbd004dc4	-0.031324163
182	0xbd207f0a	-0.039183654
183	0xbb8046e1	-0.0039146994
184	0xbd0ad498	-0.03389415
185	0x3b6b1bb1	0.003587466
186	0x3cdb319e	0.026757058
187	0xbc38a715	-0.011270304
188	0xbc89a995	-0.016804496
189	0xbd25d89e	-0.040489785
190	0x3d0226e2	0.031775363
191	0xbb880ddf	-0.004152044
192	0xbc8e50cb	-0.01737251
193	0x3c0eb216	0.008709451
194	0xbcebdcd2	-0.028791819
195	0x3ca960f5	0.020676116
196	0x3c746956	0.014917692
197	0x3d1acdf3	0.037794065
198	0xbd0fbcb6	-0.03509208
199	0xbc0dd4e5	-0.008656715
200	0xbd1c6be0	-0.038188815
201	0xbcb542b3	-0.022126531
202	0xbc791c0f	-0.015204444
203	0xbc909485	-0.017648945
204	0x3d1f752b	0.0389301
205	0xbd170b43	-0.036875974
206	0xbbfe1841	-0.007754356
207	0xbc6f2d81	-0.014598251
208	0x3d25a085	0.040436286
209	0xbb766d26	-0.0037601679
210	0x39403351	0.00018329664
211	0x3d2c0bf6	0.042003594
212	0xbcae2ecb	-0.021262547
213	0x3c4dc939	0.012560182
214	0x3c7b6849	0.015344688
215	0xbd1239f2	-0.035699792
216	0xbb6ee758	-0.003645381
217	0x3d0b44ac	0.034001037
218	0x3c976d79	0.018484818
219	0xbd20892c	-0.039193317
220	0x3c6e1610	0.014531627
221	0x3d3036b6	0.043020926
222	0xbd0651a7	-0.032792713
223	0x3bc30628	0.0059516616
224	0xbc8f6628	-0.017504767
225	0x3d1e2aa0	0.03861487
226	0x3d02acab	0.03190295
227	0xbd17e5b6	-0.037084304
228	0x3cc3ec69	0.02391644
229	0xbbcf0476	-0.0063176705
230	0xbc75752d	-0.01498155
231	0xbbc10cd7	-0.005891423
232	0x3d2357d3	0.039878678
233	0xbd12d13d	-0.035844076
234	0xbcaeb6fd	-0.02132749
235	0xbd0d64b6	-0.034519874
236	0x3d18392b	0.037163895
237	0x3c0d803d	0.008636531
238	0xbcb0baa6	-0.021573376
239	0xbd1c64e6	-0.03818216
240	0xbcb0c615	-0.021578828
241	0xbcb5bf9a	-0.02218609
242	0x3d2428fc	0.04007815
243	0x3c55c7ad	0.013048095
244	0xbd04b2ca	-0.03239707
245	0x3c327034	0.010891009
246	0xbcdbaf5f	-0.026817022
247	0xbc760d83	-0.01501787
248	0xbc3856ea	-0.011251191
249	0xbd045652	-0.032308884
250	0xbd0bc56a	-0.034123816
251	0x3ce1f1c1	0.027581098
252	0x3c5f3355	0.013623078
253	0x3ba2d3db	0.004969103
254	0x3c2395a0	0.009984404
255	0x3d0ae4f5	0.033909757

net.2.bias f4 [128]
0	0xbd0b795b	-0.03405128
1	0x3d00cf52	0.031447716
2	0x3ce4af5f	0.027915655
3	0x3d0396ef	0.032126363
4	0x3cf7662c	0.030200087
5	0xbd3d6d45	-0.046246786
6	0x3ca5279a	0.020160485
7	0xbc60cb25	-0.013720308
8	0x3dc466f4	0.09589949
9	0x3d09e1ad	0.033662487
10	0x3d820e38	0.06350368
11	0x3d9efba3	0.0776284
12	0x3d811a5e	0.06303857
13	0x3d3730bb	0.044724207
14	0x3e18e41e	0.1493077
15	0x3ce4cba5	0.027929137
16	0x3d7d2b09	0.06180862
17	0x3d88b0a7	0.06674319
18	0x3b623a5d	0.003451965
19	0xbad0a2ef	-0.0015917699
20	0xbab15169	-0.001352829
21	0xbcd22c5c	-0.025655918
22	0xbb8eefb4	-0.004362071
23	0xbce30216	-0.027710956
24	0x3d39d1fe	0.04536628
25	0xbb18e1b3	-0.0023327887
26	0x3d84844e	0.064705476
27	0x3e14aad3	0.1451829
28	0x3e15b8e3	0.1462131
29	0xbcb952d8	-0.02262251
30	0xbb576f72	-0.0032872823
31	0x3caf0e13	0.021369016
32	0x3c61d656	0.013784012
33	0x3dc748e7	0.09730702
34	0x3d0a0891	0.033699576
35	0x3d2e92e6	0.042620562
36	0xbce1e2ba	-0.027573932
37	0x3c800bc6	0.015630614
38	0x3c060836	0.008180669
39	0xbcc098b5	-0.023510316
40	0x3d8dda4e	0.06926404
41	0xbb1b9b0e	-0.0023743543
42	0x3d889235	0.06668512
43	0xbc5e6536	-0.013573935
44	0x3b2b6aed	0.0026156262
45	0xbba866a3	-0.0051391884
46	0x3d95f659	0.07322378
47	0x3d8cc3e9	0.068733044
48	0x3d3edb0a	0.04659561
49	0x3da240ab	0.07922491
50	0x3e04d433	0.12971573
51	0xbc0245d4	-0.007951219
52	0x3d43373c	0.047660097
53	0x3de2faaa	0.110829666
54	0x3de3e217	0.111271076
55	0x3ca23584	0.019800909
56	0x3cc9feb2	0.024657581
57	0x3d9500bc	0.07275531
58	0x3d3c8b7d	0.046031464
59	0xbc0bd65d	-0.008534995
60	0x3d8fcb3e	0.07021187
61	0xbc53bc04	-0.012923244
62	0xbca0623b	-0.01957809
63	0x3d9b3efc	0.07580373
64	0xbd3ad32c	-0.045611545
65	0x3c431fd6	0.011909446
66	0x3d70ca75	0.058786828
67	0x3d322a6b	0.043497484
68	0x3d77cc26	0.060497425
69	0x3d45df93	0.04830892
70	0x3d853a57	0.06505268
71	0xbd2c9d25	-0.042142052
72	0x3de15eca	0.11004408
73	0x3d8dfb56	0.06932704
74	0xbd23b3e3	-0.039966475
75	0x3e041dd9	0.12902011
76	0xbd207dcb	-0.039182466
77	0x3d0711e1	0.032976035
78	0xbc00cea6	-0.007861769
79	0x3db3f621	0.0878718
80	0xb990682a	-0.0002754343
81	0x3c96cd6a	0.018408496
82	0xbd237ad7	-0.03991207
83	0x3d79ee0f	0.061018046
84	0x3ca3b021	0.019981446
85	0x3ce2e602	0.027697567
86	0xbc8c0b5f	-0.017095266
87	0x3b84e93e	0.004056125
88	0xbc1df8eb	-0.009641866
89	0x3cb21568	0.021738723
90	0x3cdddaac	0.02708181
91	0xbc05a965	-0.008158063
92	0x3dc5a66b	0.09650882
93	0x3d76d279	0.060259316
94	0x3e0dc1b4	0.13843423
95	0x3c3e68d0	0.011621669
96	0x3cb90c4f	0.022588877
97	0x3ba64aa0	0.005074814
98	0x3c9e1cb0	0.019300789
99	0x3e01dabe	0.126811
100	0x3d1d6589	0.03842691
101	0x3de7a892	0.11311449
102	0xbc9fda4a	-0.019513268
103	0x3dc6780d	0.096908666
104	0x3d10192b	0.035180252
105	0xbd165348	-0.036700517
106	0x3dc7dbbc	0.09758708
107	0xbb9d9bff	-0.004809856
108	0x3dfc1820	0.12309289
109	0x3d6447d6	0.05573257
110	0x3d9969f1	0.0749091
111	0xbbcbdf0c	-0.0062216576
112	0x3dac5704	0.084150344
113	0x3d98eea6	0.074673936
114	0xbd07e968	-0.033181578
115	0x3ca8849d	0.020571047
116	0x3d05b984	0.032647625
117	0x3da3a57e	0.079905495
118	0x3dad1811	0.08451856
119	0x3d6adfd9	0.057342384
120	0xbb9aaf07	-0.004720572
121	0x3d8fa97a	0.07014747
122	0xbd2b5ef5	-0.041838605
123	0x3d157136	0.03648492
124	0x3d01f3dc	0.031726703
125	0x3c0e7c45	0.00869662
126	0x3d84d579	0.06486029
127	0xbbaa91ee	-0.0052053845

net.4.weight f4 [5, 128]
0	0x3db0a846	0.086258456
1	0xbdebd707	-0.115156226
2	0x3cffc44b	0.03122153
3	0xbd60064a	-0.054693498
4	0x3e28a386	0.16468629
5	0xbd36848a	-0.044559993
6	0xbc9f0975	-0.01941369
7	0xbfd8a646	-1.6925743
8	0x3e011360	0.12605047
9	0x3df892fa	0.121374086
10	0x3de0b2a9	0.10971577
11	0xbbe5de02	-0.007014991
12	0x3e825d13	0.25461635
13	0x3d7aef16	0.061263166
14	0x3e1dae18	0.15398443
15	0x3d5d7356	0.05406507
16	0xc002b2e7	-2.0421693
17	0x3da50102	0.08056833
18	0xbcc384f3	-0.023867106
19	0xbdc53b20	-0.09630418
20	0xbda9946a	-0.08280261
21	0xbc98019a	-0.018555451
22	0xbda52dea	-0.08065398
23	0x3da69928	0.08134681
24	0x3e06b487	0.13154803
25	0x3d561763	0.052268397
26	0x3dd37e2c	0.103268
27	0x3e03f59c	0.12886661
28	0x3e57b7b9	0.21066178
29	0xbc3bbf27	-0.0114591485
30	0x3c4cbf8c	0.01249684
31	0xbe5c946a	-0.2154099
32	0xbd0b3b96	-0.033992372
33	0x3e1371f0	0.14398932
34	0x3d0ce4b5	0.0343978
35	0x3d0cda45	0.034387846
36	0xbbcd77e8	-0.0062703975
37	0xbde3e5db	-0.11127826
38	0xbff04465	-1.8770872
39	0x3cbbe250	0.022935063
40	0x3d07e5b2	0.03317804
41	0xbd992cbe	-0.07479237
42	0x3e220af0	0.15824485
43	0x3d8d8239	0.069096036
44	0xbe1c556f	-0.15266965
45	0xbf0f5c34	-0.56000066
46	0xbe7eaedc	-0.24871391
47	0x3e400cb7	0.1875485
48	0xbe0232c7	-0.12714683
49	0x3e25874c	0.16164893
50	0x3e0f6eb3	0.14007072
51	0x3cb1454d	0.02163949
52	0x3e7e510f	0.24835609
53	0x3e30e556	0.17274985
54	0x3de38681	0.11109639
55	0xbe821b63	-0.2541152
56	0xbcf0405d	-0.029327566
57	0x3e1926ec	0.14956254
58	0xbfd42e1a	-1.6576569
59	0x3d6b71e1	0.05748165
60	0x3dd63458	0.104592025
61	0xbe021d7b	-0.12706558
62	0x3db16b50	0.08663046
63	0x3daa15dd	0.08304951
64	0x3d63b7d6	0.05559524
65	0xbd00a2ef	-0.031405386
66	0xbdbc9ef9	-0.09210009
67	0x3dfac116	0.122438595
68	0x3e3bb5ec	0.18331116
69	0x3df9da63	0.12199857
70	0x3e160650	0.14650846
71	0xbccf2c1c	-0.025289588
72	0x3e0daf4b	0.138364
73	0xbbe957c8	-0.00712106
74	0xbbeb653d	-0.0071836994
75	0x3e31d9ab	0.1736819
76	0x3d297cf0	0.041378915
77	0xbc530330	-0.012879178
78	0x3cdd75d4	0.027033724
79	0x3e0b2bf0	0.1359098
80	0x3d017938	0.031609744
81	0xbf101af6	-0.5629114
82	0x3cb92d12	0.022604499
83	0x3e03ec33	0.12883072
84	0x3d64bcf9	0.05584428
85	0x3e3b25f6	0.182762
86	0xbe6b54d5	-0.2298158
87	0xbe601564	-0.2188316
88	0xbd916798	-0.07099837
89	0xbdae42d5	-0.08508841
90	0x3bb0bb6e	0.005393437
91	0xbd35b617	-0.044363108
92	0x3e285af0	0.1644094
93	0x3e395292	0.18097904
94	0x3db34327	0.08753043
95	0xbba1ef57	-0.0049418616
96	0xbd810898	-0.06300467
97	0xbcfd5373	-0.03092358
98	0xbde0578c	-0.10954198
99	0x3df1741f	0.117897265
100	0x3ca3d6a9	0.019999819
101	0x3e27d6fb	0.16390602
102	0x3d8c5829	0.06852753
103	0x3e175485	0.14778335
104	0x3d617cc4	0.055050626
105	0x3d39b51d	0.04533874
106	0x3e972463	0.29519948
107	0x3edae221	0.42750648
108	0x3e4a4d17	0.1975597
109	0xbff9258e	-1.9464586
110	0x3e11e95b	0.14249174
111	0x3d90e8bb	0.0707564
112	0x3dd7bd47	0.10534149
113	0xbf3e5d6e	-0.7436131
114	0x3e0e6250	0.1390469
115	0x3d458335	0.048220832
116	0x3db1d4cf	0.08683168
117	0x3d909486	0.070595786
118	0xc000ab1b	-2.0104434
119	0xbd81f560	-0.0634563
120	0xbed9aaca	-0.42513114
121	0xbd9f7926	-0.07786779
122	0x3cb99113	0.022652185
123	0x3d294639	0.041326735
124	0xbd3f6271	-0.04672474
125	0xbd08a870	-0.03336376
126	0xbda97497	-0.08274191
127	0xbfebcb7a	-1.8421471
128	0xbd934c86	-0.0719233
129	0x3e2744d5	0.16334851
130	0x3ddbbe7d	0.10729692
131	0xbb75a4b3	-0.0037482202
132	0x3de4061c	0.11133978
133	0x3cd5de07	0.026106847
134	0x3c4dcdf6	0.012561312
135	0xbc022c81	-0.007945181
136	0xbd017787	-0.03160813
137	0x3cfa89b5	0.030583242
138	0x3dbbab51	0.091635354
139	0xbad58bcd	-0.0016292274
140	0xbf18f49e	-0.59748256
141	0x3d5945fc	0.053045258
142	0xbbe781bd	-0.0070650266
143	0x3dcaeae1	0.09908081
144	0x3e4dcf6d	0.20098658
145	0x3e3b9668	0.18319094
146	0x3d0586c2	0.03259922
147	0x3e2c7a7c	0.16843599
148	0x3daf36da	0.08555384
149	0x3e773bf2	0.24143961
150	0xbda7c7c5	-0.081924
151	0xbda072b9	-0.078343816
152	0x3e3d8baa	0.18510309
153	0xbc70a25d	-0.014687148
154	0x3cff9679	0.03119968
155	0x3e41038d	0.18849011
156	0xbfdedd8d	-1.7411362
157	0xbd059330	-0.032611072
158	0xbd83a0ab	-0.06427129
159	0x3e63b24b	0.22235982
160	0x3d0cf9c1	0.03441787
161	0x3dce5078	0.10073942
162	0x3c8c4f81	0.017127754
163	0x3d630630	0.055425823
164	0x3d83405e	0.064087614
165	0x3df2f158	0.11862439
166	0x3e91cc34	0.28476107
167	0xbd6d1761	-0.057883624
168	0x3d3c8337	0.046023574
169	0xbcab7f11	-0.020934613
170	0x3db0a661	0.08625484
171	0xbd3cba48	-0.04607609
172	0x3da1559e	0.07877658
173	0x3e19b53c	0.15010542
174	0xbf3b3506	-0.7312778
175	0x3e71083a	0.23538294
176	0xbe06db82	-0.13169673
177	0xbfaf4d9e	-1.3695562
178	0x3e323a05	0.17404945
179	0xbd80b0d4	-0.06283727
180	0x3cd1537d	0.025552506
181	0x3e328613	0.17433958
182	0xbd02390d	-0.03179269
183	0x3e612cbc	0.21989721
184	0x3d44fbf9	0.048091862
185	0x3e2f33b6	0.1710957
186	0x3e7f9c6a	0.24962011
187	0x3babda98	0.0052445643
188	0x3e560d56	0.20903525
189	0x3e4efb5d	0.20213075
190	0x3cef0313	0.02917627
191	0x3dd84a57	0.10561054
192	0xbd60d20d	-0.05488782
193	0xbd738173	-0.059449624
194	0x3df9b71c	0.121931285
195	0x3d4e51c4	0.050370947
196	0xbd4716ba	-0.048605658
197	0xbcff0bfc	-0.031133644
198	0x3e656c14	0.2240451
199	0xbd407eae	-0.04699581
200	0x3d8f35ba	0.069926694
201	0xbb02a214	-0.0019933032
202	0xbc9f980e	-0.019481685
203	0x3d01a73d	0.03165363
204	0x3d8a43ee	0.06751238
205	0xbcc078f2	-0.023495171
206	0x3d20d0c9	0.039261613
207	0xc0041dd6	-2.064321
208	0xbd9d3164	-0.07675436
209	0x3ecc9c77	0.39963123
210	0x3d82fb6f	0.063956134
211	0x3e1d606f	0.15368818
212	0xbcffa883	-0.031208282
213	0x3d0f9ef8	0.035063714
214	0x3e89d4ff	0.26920316
215	0x3e886aed	0.26644078
216	0x3dd13e04	0.10216907
217	0x3d2d37c9	0.04228953
218	0x3d94c7c6	0.07264666
219	0x3c94418f	0.018097667
220	0xbc9cc360	-0.01913613
221	0x3e4243b7	0.18971144
222	0xbcaeb984	-0.021328695
223	0xbd081e10	-0.033231795
224	0x3d235eb4	0.039885238
225	0x3d515f1d	0.051116098
226	0x3dc1bc36	0.094597265
227	0x3e2d4d79	0.16924085
228	0xbc417fd1	-0.011810259
229	0x3cd334ab	0.02578195
230	0x3d0deeba	0.034651496
231	0x3dc8fae3	0.09813478
232	0xbd5ac9eb	-0.05341522
233	0x3db43b19	0.088003345
234	0xbeea3c6d	-0.45749226
235	0xbdb87528	-0.09006721
236	0x3dbec870	0.09315574
237	0xbd03f516	-0.032216154
238	0x3e2a7da4	0.1664949
239	0x3d3aed5e	0.045636527
240	0x3df9ff2a	0.12206872
241	0xbf2e9130	-0.6819029
242	0xbc86739b	-0.016412547
243	0xbd89d877	-0.067307405
244	0x3dd27b0f	0.10277378
245	0x3e0ec435	0.13942035
246	0x3e838c11	0.256928
247	0x3dea892d	0.114519455
248	0xbe616e3a	-0.22014704
249	0x3e323d51	0.17406203
250	0xbcdf02e0	-0.02722305
251	0xbe344432	-0.1760414
252	0x3da67892	0.08128466
253	0xbca247ac	-0.019809566
254	0x3d62a6d4	0.05533488
255	0xbe29050e	-0.16505834

net.4.bias f4 [5]
0	0x3de020d3	0.10943761
1	0x3dfb637d	0.12274835
2	0x3e1eaa76	0.15494713
3	0x3b3e6d93	0.002905701
4	0x3d18e35f	0.037326213
