Configuration 1/dqn_q_net.pth (torch, 657052 bytes, 6 tensors)

net.0.weight f4 [512, 189]
00000000: 3d93 57bc ee2d 603d df51 9f3d df8a c13c
00000010: 745c 803c 7ef8 7e3d 7051 403d da79 213d
00000020: d3da 623d b7d4 2bbc 6d98 cf3c 7dc9 5d3d
00000030: 6f4d 78bd 3f86 6a3d 3afd 833d d8fb aa3c
00000040: 3c6d 9f3c aef9 ebbc c51e 55bd 88fa 043d
00000050: 5ff0 443c 6ea5 f8bc 003b ff3b 5fc0 4a3d
00000060: 9019 7d3d eb65 b53c 7bd2 5f3d 0d90 363d
00000070: 6313 cb3c fbf1 4cbb 3108 5fbd d326 59bc
00000080: b450 1abd 469f 2dbc 893a 06bd e0b6 373d
00000090: 1f83 d1bc 36b8 1f3b e75f 3d3d a771 0fbd
000000a0: 3f41 71bd 62c3 23bd 6172 3d3c c3c3 41bd
000000b0: 503c 103d a63e 563d bf41 4e3a 44df 2d3d
000000c0: bd36 55bd 49f5 0ebd 503b 213d 0e23 afbc
000000d0: 181e 123d d374 463d 7f15 903d cd6a 21bd
000000e0: 819e 38bc 6a78 33bd a2f5 42bc bff5 66bd
000000f0: 2ca6 9fbc 5b60 89bd 569d 20bd 0711 20bd
00000100: 7e80 23bd bb4e 94bd 26b7 8e3c 90de a53c
00000110: c9db cd3c 5e6b 64bd 4360 923d 3fde 5fbd
00000120: a898 d23c 938c 2c3c b99a 3dbd 1f6d 91bd
00000130: ec51 833d 431a 8a3c a678 afba 1b75 7abd
00000140: 7d7d 0f3b 469c dbbb bbf9 88bc 572e 5a3d
00000150: 2bd5 18bd ee3d 90bd 5b99 91bd 6908 0e3d
00000160: 70e9 74bd a066 84bd 00e1 ee3c 3544 713d
00000170: 0bcc 5cbd 19c2 933d c0d1 e0bc cd2d 903d
00000180: b7a4 603d aa2e 5c3d c4e7 873d f1b1 8dbd
00000190: 7376 8abd a42a 663d 9f08 33bd 7a50 9d3c
000001a0: 898f 92bd 8066 24bd 240b d5bc b6dc 8f3d
000001b0: 1de5 c4bc 6931 873d efa1 51bd 7edd 933c
000001c0: 35ae 98bc 0c98 473c 6573 0abd b936 23bc
000001d0: d06d 09bd 4209 593c 317f 63bc 5349 f53c
000001e0: 0c60 18ba c71a b6bc 7953 233d 8710 60bd
000001f0: 0dc6 30bd a245 6c3b 47fc 5cbd 935d 0cbc
00000200: 523e 0b3d 7470 71bd f868 d7bb 7f4d 703d
00000210: cfbb 88bc 02ff 933d fb3c 943c 84c1 1f3d
00000220: 0bdc 23bd 968b 053d 0233 5f3c 4420 26bd
00000230: efc3 78bd 6e05 47bd 84a6 3abd f94e 833d
00000240: 127a 0abd 5a94 48bd 9495 37bd 285f 52bd
00000250: d965 dabb 861a 2dbc 738c 1fbd 9af0 c0ba
00000260: 8b1c 7bbd 48c7 4cbc 441a dabc 2cc9 70bd
00000270: 6354 5f3d c76a d539 fece 073d 253d 113d
00000280: 738a fc3c 0d6a 14bd 0c2c 913d 8b45 a13d
00000290: 2ff5 7dbd 6dd1 913c 7f88 8dbc f6c3 5bbd
000002a0: 249f 23bc b5c1 d6bc 4455 893c eaa0 54bd
000002b0: 41a3 34bd cf00 083b be0c 46bb 8bb0 883d
000002c0: eb8f af3c d0a8 8d3c 5812 de3c c123 473d
000002d0: 900a ba3b a8f0 433d 407b 843d b9c7 2ebc
000002e0: fd68 943c f5ce 3b3d 48ba 123b 6e20 65bd
000002f0: 4fa5 9d3c 0f50 dd3c 68c9 403d 379a ffbc
00000300: e398 28ba dd3b 603d 91ea d2bb 0fc5 61ba
00000310: 3c01 a33c d5c8 463d f3ce b53c bc1d 053d
00000320: 492f 2abc 34c9 f23a fe8e 96bd a30e 6b3d
00000330: 48f2 f8bb 910a 30bd 4253 933d d0fe 17bd
00000340: b9d2 013d 8de1 993d 06b1 623d 0f3e db3c
00000350: b52d 78bd 0fb3 153c c731 e33b a5b2 493d
00000360: 760a 843d e4e1 373c f264 88bd 0d3d bb3c
00000370: 7dcc 84bd 4f4b 3b3c 9b24 ee3c 1365 87bd
00000380: 5e7b 8dbb 4a94 133d 93a5 47bd 9103 133d
00000390: a5f9 2abd 36e1 8b3d e602 0abd bcac 983c
000003a0: 7557 00bd 1317 ba3c 08e0 d8bc df47 26bc
000003b0: d48a 1b3d 89b6 e1bc 2e52 143d 7574 08bd
000003c0: d235 82bd 303d aebc b64a 8ebc 2d6c aa3c
000003d0: 4a49 843c eb67 113d acf8 183d bc9c 92bd
000003e0: 9e48 1b3d ce4c 67bc c439 f6bb 76f9 be3b
000003f0: 1a5d 09bd 549a a43c 4922 a9bc 2a33 59bd
-0.013157663 0.054731302 0.077792875 0.02362579 0.015669085 0.0622487 0.046952665 0.039422847
0.05538447 -0.010487727 0.025341237 0.054147232 -0.06062072 0.057256933 0.064447835 0.020872042
0.019461267 -0.02880558 -0.052031297 0.032465488 0.0120202 -0.03035232 0.007789016 0.049499866
0.061791956 0.022143325 0.05464409 0.04457097 0.024789518 -0.0031272161 -0.05445117 -0.013253885
-0.03767462 -0.010597056 -0.032770667 0.044852138 -0.025575219 0.0024371273 0.046234038 -0.035020497
-0.058900114 -0.039981253 0.011562915 -0.047305834 0.03521377 0.05230584 0.00078680733 0.04244925
-0.052054156 -0.03490189 0.039363205 -0.02137902 0.03567323 0.048451256 0.0703535 -0.039408494
-0.011268259 -0.043816008 -0.011899384 -0.056386705 -0.019488417 -0.067078315 -0.039212547 -0.03907874
-0.03991746 -0.07241579 0.017421316 0.020247728 0.025129216 -0.055766456 0.07147267 -0.05465531
0.025707558 0.010531562 -0.046290133 -0.07100891 0.0641211 0.016858226 -0.0013387396 -0.061146837
0.0021894865 -0.006701979 -0.016720643 0.05326685 -0.037312668 -0.07043062 -0.07109328 0.03467599
-0.059792936 -0.06464887 0.029160023 0.058902938 -0.053905528 0.072147556 -0.027443767 0.07039986
0.054844584 0.05375544 0.06636003 -0.06918705 -0.06760874 0.05619301 -0.043709394 0.019203413
-0.071562834 -0.040136814 -0.026006289 0.07024519 -0.024035031 0.06601221 -0.051179823 0.018049952
-0.018637756 0.012182247 -0.033801455 -0.009961777 -0.03355199 0.013246836 -0.013885305 0.02994219
-0.0005812652 -0.022229565 0.039874528 -0.05470326 -0.043157626 0.0036052247 -0.053951528 -0.008567232
0.03399498 -0.058945134 -0.0065737925 0.058667656 -0.016691117 0.07226373 0.018095484 0.03900291
-0.04000477 0.032603823 0.013623001 -0.040558115 -0.06073373 -0.048589163 -0.045568958 0.06411547
-0.03380782 -0.048969604 -0.044820383 -0.05136028 -0.006664973 -0.010565406 -0.038952302 -0.0014720142
-0.061306518 -0.012498684 -0.026623853 -0.058785602 0.054523837 0.0004070608 0.033156388 0.035458703
0.030827736 -0.03623395 0.070884794 0.078745924 -0.062001403 0.017800057 -0.017277 -0.05365368
-0.009986673 -0.026215414 0.01676429 -0.051911272 -0.044101004 0.0020752435 -0.0030219997 0.06674298
0.02143093 0.01729241 0.027108356 0.048618082 0.0056775287 0.04783693 0.064688206 -0.010667735
0.018116469 0.045851666 0.0022388864 -0.05593913 0.019243864 0.027015714 0.047067076 -0.031201465
-0.00064314733 0.05474459 -0.006436654 -0.0008612433 0.01989805 0.048531372 0.022193408 0.03249906
-0.01038725 0.0018523098 -0.07351492 0.057387006 -0.0075972416 -0.042978827 0.071936145 -0.037108243
0.0316951 0.075137235 0.055344604 0.02676299 -0.060590465 0.009136929 0.006933424 0.049242634
0.06447308 0.01122329 -0.06659879 0.02285626 -0.064843155 0.011431529 0.02907019 -0.06611075
-0.004317685 0.03603009 -0.04874189 0.035892073 -0.041741986 0.06830065 -0.03369417 0.018637054
-0.031333406 0.02271608 -0.026474014 -0.010148971 0.037974194 -0.02755286 0.036211185 -0.033314187
-0.06357922 -0.02126941 -0.01736961 0.020803535 0.016148228 0.035499495 0.037346527 -0.07158801
0.03791105 -0.014117433 -0.0075142104 0.005828078 -0.033536054 0.02009312 -0.020646231 -0.05302731

net.0.bias f4 [512]
00000000: 1994 1a3c 3669 013d 50f5 9b3c 9de3 7cbc
00000010: 46ef f03c 0fe3 b8bc 9d4e b1bb 1a31 cb3c
00000020: c1f7 efbb 7e26 773d f157 3bbd 1eb8 36bd
00000030: 2d41 25bd 672a 1d3d 6de6 833d f60d a7bd
00000040: 51e6 0b3c ac23 ed3a 246a 863d 15fa b0bd
00000050: 5eed 0b3c 7bdf d6bd 4a60 453c cdb8 f2ba
00000060: 33ac ad3a d72c a03d 96ac 9d3d 0c09 6ebd
00000070: 398c 253c c14f b1ba 3dd9 a7bc cdad bc3d
00000080: 6977 833b e95b 6f3c 659e 193c 6137 463c
00000090: b44b 72bd 60c4 7d3d d691 59bd a2b3 f83c
000000a0: b22f 923b ed46 a2bb a771 c33c 667c c0bc
000000b0: 7282 ac3d d0e1 2a3a 1fc4 91bc 2123 22bd
000000c0: 290c 8b3d 4df8 deb9 0cb4 073d e8e7 1f3d
000000d0: 80f9 773d 37b1 c5bb c00b 8bbc ffa0 4d3d
000000e0: 82ea 013d b80d 37bc d752 40bd 1aa8 453d
000000f0: 997f b23c 0ca6 31bd 6966 c93c 0b4a e13d
00000100: cfc8 df3a bc4a 84bd 0cc2 cc3c 1b0a 44bc
00000110: ab9f 3ebd 67f1 3ebd 099c 65bd fe3f 12bd
00000120: 2920 703c b23a c73d 51aa 5dbd d4ae 4a3d
00000130: 632a 3dbd a189 cd3d 2368 ca3c cfff 39bd
00000140: cbf9 7e3d 0d48 063d dad3 1e3d a942 103d
00000150: 664e 10bd 64b2 21bd 028c f7bc 34e2 603d
00000160: 18dd 023d 774e 153a 5a2d 56bd cd8b c43b
00000170: 42d3 29bd 3fc7 ae3b dba8 f93c 79ac 8cbc
00000180: 1d35 6e3d d4bd 85bd c2c6 843c a94a 383d
00000190: 6c01 993d ef5e ee3d d613 803d 359c 373d
000001a0: 93be 623d aa49 4b3d c22c 10bc 0565 b63d
000001b0: b745 19bd 0ceb 563b 8b22 913d 5d7b 963d
000001c0: fab6 c53d da29 41bd 5f38 c63c 7b41 fbbc
000001d0: 98c2 93bd 95e4 6ebc ea89 603d 99a4 adba
000001e0: 2489 603d a3fd c6bc 2dcf 813d 84b0 5dbd
000001f0: e8c4 40bc 31ce 323d e1ff 44bd 8eee 1abd
00000200: 8f2d 683d c8bf 843d 8f71 193d 1e0f 753d
00000210: e05d d3bc e056 a63d 01ea 60bd 6995 d83b
00000220: 9cb1 20bd 2a47 fdba aff3 83bd 9454 8a3d
00000230: f5b4 033d a73c 0b3d 1809 653d ec0f 83bd
00000240: 9597 c3bc 137c 21bd 16a2 7abd 71d0 5f3b
00000250: 3756 41bd 861c bfbc 1500 11bd a683 d43c
00000260: 0fae 863d 8403 c93d 9b35 303c b0e6 83bd
00000270: 6467 6c3d dd43 6ebb f960 9a3c 48de 8b3d
00000280: 9ae6 893d 4c51 17bd 62bf a03d 3e66 783d
00000290: a9ec 1bbc e75e 8f3d 5a3c 2f3d 3649 433d
000002a0: da54 43bb 0013 253c 2caf 81bc fa6e 473d
000002b0: e4d5 253d d4ff 36bd 5ea5 59bd 005c 3f3d
000002c0: e8b9 3fbd 61b6 bd3d 3a1d 913d 627e 903c
000002d0: b776 1b3d 296d 23bd ac59 833d 4273 8b3d
000002e0: 7058 8f3d ad7f 36bd 846a 2f3d 4711 53bb
000002f0: d59b 50bd dc91 b83c 8354 323d 6661 903c
00000300: a8fc 21bd 1cef ae3c 0682 fdbb 7077 303d
00000310: 7005 81ba b081 82bc 503e cb3c 6a1b a03d
00000320: ab2a ccbc 04dc 16bd 88be 853d e2b4 44bc
00000330: 7467 abbc 5cbd 153d d331 00bd 5f27 08bd
00000340: e940 e73c 74ec 2c3a 512c 17bc 35fc 543b
00000350: 2d70 30bd 4951 df3b 0f94 5e3d c31c 98bd
00000360: 786b 013d 6b71 99bc 21dc a5bd a9c9 7a3c
00000370: d228 353d ddb4 c8bc 0189 0cbd 5e68 713d
00000380: d2dc 483d dd35 163d 7395 44bd e288 36bd
00000390: 7829 63bc 7ee5 833d b9cc 543c 6568 113d
000003a0: 8a21 24bd 1e0e eb3c 7649 743d 8ad8 7fbd
000003b0: 5456 e0bb 86fc 06bc aa81 edbc 348f b7bc
000003c0: a585 40bd 0d48 6dba 6555 573d 92ac 32bd
000003d0: ad49 b8bc ed08 443d 2503 963d 09c7 183d
000003e0: 7f2d f5bc 1b7e 5fbd 4a7e 733d 26fd 313d
000003f0: 4edd 5c3d 8493 8dbd 04c1 4ebc e349 a03d
0.009434723 0.031594478 0.019037873 -0.015435127 0.02941097 -0.022569207 -0.0054109828 0.024803687
-0.0073232357 0.060339443 -0.045738164 -0.04460918 -0.04034536 0.038370516 0.064404346 -0.0815696
0.008538798 0.0018092296 0.065632135 -0.08641449 0.0085404795 -0.10491844 0.012046883 -0.001851821
0.0013250172 0.078210525 0.07698934 -0.058114097 0.0101042325 -0.0013527797 -0.02048933 0.09212837
0.0040120375 0.014609315 0.009376143 0.012098164 -0.059154227 0.061954856 -0.053117596 0.030359093
0.004461252 -0.0049523027 0.023857905 -0.023496818 0.08423318 0.0006518634 -0.017793713 -0.039584283
0.06789429 -0.00042528138 0.03313069 0.039039522 0.060540676 -0.0060330885 -0.016973376 0.050202366
0.031717785 -0.011172704 -0.046954002 0.048256017 0.021789359 -0.043371245 0.024584966 0.11000451
0.0017073395 -0.06459567 0.024994873 -0.0119653 -0.04653899 -0.046616938 -0.05605701 -0.03570556
0.014656105 0.09727992 -0.054117505 0.049483135 -0.046183 0.10036016 0.02470786 -0.045409974
0.06224994 0.032783557 0.038776256 0.035219822 -0.035231017 -0.039476767 -0.030218128 0.054903224
0.031949133 0.0005695591 -0.052289344 0.005998111 -0.041461237 0.0053338106 0.030476024 -0.017172085
0.05815612 -0.065303475 0.016208056 0.044993076 0.07470974 0.11639201 0.062537834 0.044826705
0.055357527 0.0496308 -0.008799734 0.08905987 -0.03742 0.0032793907 0.07086667 0.073477484
0.09654041 -0.047159053 0.024196802 -0.030670872 -0.0721485 -0.014580865 0.054819025 -0.0013247906
0.054818287 -0.024290865 0.06338344 -0.054123417 -0.011765696 0.04365367 -0.048095588 -0.03782516
0.056684073 0.06481892 0.037461814 0.05982887 -0.025801599 0.08122039 -0.054910664 0.006609608
-0.03923188 -0.0019323577 -0.06442963 0.06754413 0.032154996 0.03399339 0.055916876 -0.06399521
-0.02387599 -0.039424967 -0.061189733 0.003415134 -0.04720136 -0.02332903 -0.03540047 0.025941681
0.06576168 0.09815124 0.010754968 -0.064404845 0.05771579 -0.0036356368 0.018845068 0.06829506
0.06733437 -0.036942765 0.078490034 0.06064438 -0.009516873 0.07000523 0.042782165 0.04767724
-0.0029805214 0.010075331 -0.015830599 0.04868982 0.040487185 -0.04467757 -0.053136222 0.046718597
-0.046808153 0.09263302 0.07085653 0.017638389 0.037955012 -0.039899025 0.06413588 0.06809093
0.0699929 -0.044555355 0.04282619 -0.0032206343 -0.050929863 0.022530489 0.043537628 0.017624568
-0.039547592 0.02135425 -0.0077364473 0.043082654 -0.000984354 -0.01593098 0.024809986 0.07817729
-0.02492269 -0.036830917 0.065304816 -0.012006016 -0.020923354 0.03655754 -0.031297516 -0.033240672
0.028229194 0.00065965136 -0.009226874 0.003249896 -0.04307573 0.00681511 0.05434042 -0.07427361
0.03159663 -0.01873084 -0.08098627 0.015306869 0.044228382 -0.024500305 -0.034310345 0.058937423
0.049038716 0.03667246 -0.04799409 -0.044564135 -0.013864867 0.064402565 0.012988263 0.03549995
-0.040071048 0.028693255 0.05964037 -0.062462367 -0.0068462286 -0.008238917 -0.028992493 -0.022407152
-0.047002453 -0.0009051569 0.052571673 -0.043621607 -0.022496069 0.047860075 0.073248185 0.03729919
-0.02992892 -0.054563623 0.05944661 0.04345431 0.05392199 -0.06912902 -0.012619261 0.07826593

net.2.weight f4 [128, 512]
00000000: 8491 debc ad63 ea3c 854d 80bd 2ee3 d8be
00000010: 1786 153e 8ed2 26bf d871 b6bd 4b64 21bd
00000020: 072c a9bc 428d 97be eb1b bdbe 25e5 80bf
00000030: 4e81 93bd 88c9 663f 5b57 24be 0399 f0bb
00000040: 1153 d6bd 54b8 85be 44f6 2ebe 4ad8 803e
00000050: 5c07 c93e e790 913f 0b17 a4be dee9 0a3e
00000060: e4f4 e6bc 3090 b1bd 0c54 39be 4ae4 083f
00000070: e33a 49be a79a 07bf 4a4e c2bc 19da d8bd
00000080: e50e 15bd c624 73bf ae57 8dbe 95ad 8e3e
00000090: 7d4a bcbe c872 603f 9817 9d3e ee21 24bf
000000a0: 415b a6be c92f e23e 90c4 28be 0092 69bf
000000b0: 89c9 b5bd edf1 92bd 5425 fdbe 0276 7ebe
000000c0: 8507 803e 391b 6cbe be66 88bc 89a8 73be
000000d0: 0bf5 103e b129 e2bd 5bee 65bf ea14 803d
000000e0: 7499 98be bb60 413f 4936 283f 8036 b93e
000000f0: 4a42 683e ff79 533c d3e8 b9bf 6d58 07be
00000100: 7c73 523e 497f c7be 604d 01bf 034d 53be
00000110: aaaa 313e d50e c43e 5315 7cbe e2d1 b63e
00000120: cd98 2fbd e7e0 4a3e 2e31 d2be 6538 f2bd
00000130: eaec f6be 985f c2bd 8de1 62bf 696f 3ebe
00000140: b3e2 21bf 291f cabe 1ea2 283f aa79 49be
00000150: fb3d fe3e 6e3e b0bd 4666 1abf 3916 633e
00000160: 23fa b0be 5002 da3c f88f 9dbc 69ff 3cbe
00000170: d221 5a3e 264b 643f 87e1 333f bbd5 083f
00000180: 7606 3bbe 4a02 8e3f 4833 d4be 4b88 243e
00000190: 3ea9 f1bb 5362 5abd a5a7 a83b 02a1 dd3e
000001a0: 1f34 d13e aea4 b9be 0091 37bf 6a3b 44be
000001b0: 76ba cb3e f588 3fbd f7dc 8cbe e016 923e
000001c0: 701e 8e3d 22c3 b63d c952 703f 9e39 acbd
000001d0: 109e 6a3f dfdc 56bd 9d7e b3be 514b 043d
000001e0: eccb 523e 151a df3e cb83 40be f9d4 b63e
000001f0: 7fff 5b3e 57dc 09bf 1b3f 683e 96ad 313d
00000200: 9265 0cbe dedd eabe a815 d0bd 86d2 e4be
00000210: 5ad5 0abf e1d0 973e bace 9d3e a489 fe3e
00000220: 50c8 9c3f 92e3 89bf 7666 d93b 1c5a ddbd
00000230: 48d0 b63d cab0 81be 2d9f 74be b3e3 0c3e
00000240: 792e 0d3f 7cc7 ba3e 804d 003e dc40 9c3f
00000250: 6818 613e 692a 65bd feba ea3b db31 e0bc
00000260: 0af8 3dbe 1171 27be e299 0fbe 2364 99bd
00000270: a6b2 1dbe 0e95 cb3c 8caa 68bf ec14 06bf
00000280: 189e 35bf 5d67 0f3f 13ab 0cbc cd52 e53e
00000290: 3598 9e3e c593 9fbf 0d19 20bd a095 cc3e
000002a0: 28de f43e 13e3 7fbe f41e 21bf 7b99 2d3f
000002b0: 1959 b1bd 5379 76be bdf7 16bf f1ff b9be
000002c0: 8f75 07be 2273 abbd f068 a2bf 89d7 b1bd
000002d0: 1ab4 6bbf d045 3c3b 2504 2fbe b48b 8d3e
000002e0: 23f7 133e 580c b3bc d210 973f bf6d 4a3f
000002f0: cd7c 4e3f 7089 bcbd 2c7c 96bf 3f08 273c
00000300: 480d 73bb 842a bfbe 76a9 5b3e 0401 88be
00000310: 2183 c93e 9b1e 083f a163 ffbe 2081 04bf
00000320: 373d fd3e a579 1cbe 6dfb 31bf 8de0 6cbf
00000330: 41a9 cdbe 6a23 033c f62e 333d 5f12 6bbc
00000340: 516b 11bd e6f8 583f 9c95 f03d 6206 39be
00000350: 211c 8bbe a492 903f cbc8 b83e 07cf fd3e
00000360: c713 783e 6728 eb3e 846b 873f 71ab 30be
00000370: fbb7 a7bd d0c7 bd3e 2ce1 fcbb 54e4 d4be
00000380: 0ea6 d23e 9534 e3be ca6c 5abe 53f7 0fbd
00000390: b951 393e 1db6 ebbe a8ed 20bf e0e5 96be
000003a0: 9367 be3e 495e d03e b23f 07be f593 5e3e
000003b0: d08f 933f f769 233f e15d 95bd 76df 2fbf
000003c0: 0570 b2bb 06d3 32be cf8c 8abe 8b0d 5b3e
000003d0: ad50 a7bd 2875 0cbf 91ce 313f f82c 33bf
000003e0: b33b 9fbd f5bc 173c 6a6c 0d3f 3fbe d2be
000003f0: c857 f13e 9eef c53d a229 063e 69b5 55be
-0.027168997 0.028611982 -0.06264786 -0.42360824 0.14601932 -0.6516503 -0.08908433 -0.039402287
-0.020650877 -0.2959996 -0.36935362 -1.0069929 -0.07202397 0.9015126 -0.16048948 -0.007342459
-0.104650624 -0.26117194 -0.1708613 0.25165015 0.39263427 1.1372346 -0.3204883 0.13565776
-0.028192945 -0.0867008 -0.18098468 0.5347334 -0.1965137 -0.52970356 -0.023718972 -0.10588474
-0.036391158 -0.94977987 -0.27605957 0.27866808 -0.3677558 0.8767514 0.30682063 -0.6411427
-0.32491496 0.44177082 -0.16481233 -0.91238403 -0.088763304 -0.0717505 -0.49442542 -0.24849704
0.25005737 -0.2305726 -0.016650554 -0.2379476 0.14155976 -0.11043108 -0.89816827 0.06253989
-0.29804575 0.75538224 0.6570783 0.36174393 0.22681537 0.012907504 -1.4524177 -0.13217326
0.20551866 -0.38964298 -0.5050869 -0.20634846 0.1735026 0.38292566 -0.2461751 0.35707003
-0.04287033 0.19812356 -0.41053146 -0.11827163 -0.48227626 -0.09490889 -0.88625413 -0.18597187
-0.6323654 -0.39476898 0.6587237 -0.19675317 0.49656662 -0.086056575 -0.60312307 0.22176446
-0.3456584 0.02661243 -0.019233689 -0.18456806 0.21301964 0.8917717 0.70266 0.53451127
-0.18264183 1.1094449 -0.41445374 0.16067617 -0.0073749116 -0.053316426 0.005146938 0.43286902
0.40860078 -0.36258453 -0.7170563 -0.1916329 0.39790696 -0.04676147 -0.27512333 0.28533077
0.06939399 0.089239374 0.9387632 -0.08409427 0.91647434 -0.052456733 -0.35057536 0.03229839
0.20585603 0.43574587 -0.18800275 0.3570936 0.21484183 -0.53851837 0.22680323 0.043378435
-0.13710621 -0.45872396 -0.101603806 -0.44691867 -0.542318 0.2965155 0.30821782 0.49714386
1.224863 -1.0772574 0.0066345287 -0.108082026 0.08926445 -0.25330192 -0.23888846 0.13758735
0.55149037 0.3648032 0.12529564 1.2207294 0.21981966 -0.05594865 0.0071634045 -0.027367523
-0.1855165 -0.16351725 -0.14023545 -0.07489803 -0.1540018 0.024851348 -0.90885234 -0.52375674
-0.70944357 0.56017095 -0.008585709 0.44789734 0.309755 -1.2466971 -0.03908639 0.39957905
0.47825742 -0.24988966 -0.62937856 0.6781232 -0.08659572 -0.24069719 -0.5897177 -0.3632808
-0.13228439 -0.08371569 -1.2688274 -0.08683688 -0.9207169 0.0028728135 -0.17091425 0.27645648
0.14449744 -0.021856472 1.1802008 0.7907371 0.8065918 -0.092059016 -1.1756644 0.010194837
-0.0037086774 -0.37337124 0.21451363 -0.26563275 0.39357856 0.531717 -0.49880698 -0.5175953
0.49460766 -0.15280779 -0.6952427 -0.9253014 -0.40168193 0.008004049 0.043745957 -0.014347642
-0.035502736 0.8475479 0.11747286 -0.18068841 -0.27169898 1.1294751 0.36090693 0.49572012
0.24226294 0.45929262 1.0579686 -0.172529 -0.08189388 0.37066507 -0.0077172723 -0.4158045
0.41142315 -0.44376054 -0.21330562 -0.035147976 0.18097581 -0.4603738 -0.62862635 -0.29472256
0.37188396 0.40696934 -0.13207892 0.21736129 1.1528263 0.63833565 -0.072932966 -0.6870035
-0.0054454827 -0.17463312 -0.27060553 0.21391885 -0.081696846 -0.54866266 0.6945582 -0.6999049
-0.077750586 0.009261359 0.5524355 -0.4116077 0.47137284 0.09664844 0.13101819 -0.20869984

net.2.bias f4 [128]
00000000: 7128 1a3d 00ed 6d3e 0805 e33c 2390 073e
00000010: 5651 24bd 40f4 4cbc 8e1a 073d 7033 9a3d
00000020: b4c2 8e3d 2542 173d 6503 933d 1bdd 24bd
00000030: 85c0 36bd 8c18 ce3d 4724 113e d01d 943c
00000040: 9087 293e 527c 1a3e 745f 29bc f86c 473e
00000050: 90aa 913c d08b ab3c 12d3 5ebc 5c29 a33d
00000060: 0cdb cb3d 9d98 cf3d 8681 ba3c 9738 bf3c
00000070: a648 3a3d 4b55 1ebd 334c 053e 0977 563e
00000080: 5238 ce3d 0c5b 5c3c 77fa 01bd 66fb bfbc
00000090: ebc2 bc3d ec06 d83d f97e d63b 843a 4b3d
000000a0: 8cd6 3bbd df8b 583d 1c63 003e 9e87 c2b8
000000b0: cb00 153d cca2 ef3d 43fb 4c3b 8cfc 503d
000000c0: 46f0 073e 5f2e 1abd 37ae c23d f4b8 84bb
000000d0: 5be6 2e3d c6a0 fb3b 43e1 13bd f862 7b3d
000000e0: 4c11 f33c e4d4 2d3e e053 0d3e 1ff3 043e
000000f0: f757 36bd 6a19 243e cdd7 17bc 706e ff3b
00000100: 9eca fc3d cf0d e8ba f6ca 143e 1008 583e
00000110: e5f9 f4bc d6fb 9b3d 0990 8b3d 1c79 e8bc
00000120: 004a 0bbd 1703 023e 112a c83b 276a 7a3d
00000130: 480f 51ba 0d0e 323e 3ff1 343e 119b ac3d
00000140: 7256 f9bc 9f0f c83d 0282 093e 84f2 093d
00000150: 8d43 bcbc 7a86 cdbc 3b3d 8a3c e5cd 243e
00000160: c200 11bd 608a a43d 7494 1d3c 0cbd fcbc
00000170: 29d7 533d c673 903c df5d 10bd a31e c23c
00000180: d21a 0a3d b900 f73d ca67 3c3e 0fd9 b1bb
00000190: 715f 0b3e c0eb 84bc a806 8cbd 749b 313e
000001a0: 83ea c2bc cac2 1d3e 0ed8 d83d 7eb4 523e
000001b0: 2ed0 603e d9d6 b03c 4e0a 793e 0431 29bc
000001c0: 53b9 663e e5a9 0dbd 9275 923d b57e 0cbc
000001d0: 7014 393e 0401 b23c a157 253d f401 a23d
000001e0: ad3c 463e 4102 dfbc 5b35 793d 21de 63bc
000001f0: 056a 2c3d 826a 593d 14bc 67bd 4566 483e
0.037636224 0.2323494 0.02771236 0.13238578 -0.04011663 -0.012509406 0.03298431 0.07529342
0.069707304 0.036928315 0.07178382 -0.040249925 -0.044617195 0.10063276 0.14173995 0.018080622
0.16555619 0.15086487 -0.010337699 0.19475162 0.017781526 0.020940691 -0.013600128 0.07966873
0.09953889 0.101365305 0.02276684 0.023342414 0.04547944 -0.03865556 0.13017349 0.20943846
0.10069336 0.013449442 -0.031733003 -0.023435306 0.09216865 0.10548195 0.006545898 0.04961635
-0.045858905 0.052867766 0.12537807 -9.2759015e-05 0.03637771 0.11700973 0.0031277693 0.051022097
0.13275251 -0.03764188 0.09505885 -0.0040503684 0.042700153 0.007679078 -0.0361035 0.06137368
0.029671334 0.16975743 0.13801527 0.12983368 -0.044517484 0.1602532 -0.0092677595 0.0077951476
0.12343334 -0.0017704311 0.14530548 0.21096826 -0.029904315 0.07616393 0.06814582 -0.028378062
-0.03400612 0.12696491 0.0061085303 0.06113639 -0.00079749944 0.17388172 0.17670153 0.08428014
-0.030436728 0.097686045 0.134285 0.033678547 -0.02298143 -0.025088537 0.0168749 0.16094168
-0.035401113 0.080342054 0.0096179135 -0.030851863 0.051718865 0.01763333 -0.035245772 0.02369625
0.033716984 0.12060685 0.18398967 -0.0054274867 0.13610627 -0.016225696 -0.06837207 0.17344457
-0.023793465 0.15406337 0.10588084 0.20576665 0.21954414 0.021586822 0.24320337 -0.010326628
0.22531633 -0.034585852 0.07151331 -0.008575131 0.18074203 0.021729 0.040366773 0.07910529
0.19359083 -0.027222754 0.0608419 -0.01390794 0.042093296 0.05308009 -0.05657585 0.19570263

net.4.weight f4 [5, 128]
00000000: 4af0 acbe f39c 4c3e d77a 0fbe 9233 c93d
00000010: 9936 14bc 827d 49bd 0f34 203e 0e11 32bd
00000020: 3d70 073e ae5c 5d40 9181 e6be 833a d03e
00000030: d9ca 2a3d 42ca 1a3e b1e3 483d 42ed 87bd
00000040: 2ac1 723d 193e 593e f846 b43b 4711 073e
00000050: f34f 9b3d 05c4 76be b4a6 2c40 8eb3 e53d
00000060: ffce 92bb f0ea 563d 3700 1cbd 4b8e 393d
00000070: 96c8 d93d 142d c2bd 7ba1 bf3d e56a 083d
00000080: 13b0 023e 3934 07be ef26 ddbc 7660 513b
00000090: 2549 c03d 7509 66bc ddda 15bb 48e4 9ebb
000000a0: 541b 8ebc c164 d73b f808 d13d 575c 9d3d
000000b0: 42a5 93bc 7572 833d 2da8 e03d 10ca f73d
000000c0: 74cc 1b3e 839d 74bc 3d05 e9bd 4fa6 7ebd
000000d0: e28e 16c0 5712 75bd 6e10 253d 5df7 13c0
000000e0: 0b0e c0bf 72d2 0b3e 9fcb 5dbc b9f2 07bc
000000f0: 97f9 37bd a948 d73d dfde a33d bb0d 82bd
00000100: 305a 113e c32f 1bbd 422f 373e ce01 213e
00000110: d52c 333e 999e 093e a124 dabf 7be6 79bd
00000120: 5e8f 323c 4a56 323e 1d1f 3bbe e12d 113f
00000130: b983 783d 34cd b73c 475f f63d 816e 863c
00000140: 43e9 a5bd d06d 4abe 89b4 133e 4301 673e
00000150: ae38 5c3d 8257 51be 8ada 67be 16c0 a03d
00000160: 6f80 e33d 1df7 183d 8930 863c f0d6 adbd
00000170: ebae b43d 721b 93bb f9a2 ed3c 9396 853d
00000180: 09fd 673d 5f57 a03d f978 3e3e 2f3f f23e
00000190: 54a1 833d 25f4 a13a 19fe adbe 1bd5 983d
000001a0: bc0e 833d 58dc 553d 425a 3e3e 91c7 273e
000001b0: f345 193e be21 783e d741 103e 7980 c6bc
000001c0: cb61 0b3e 4bf8 af3c 5a63 e9bf f68f 08bd
000001d0: 56b7 f53a 4ac3 f73b 5b52 86be 5351 bb3e
000001e0: dbb8 203e 4b22 72bd 8616 a53e 5bfe 17bd
000001f0: f1e8 f9bf 5459 b83e 2843 e63c c3f3 153e
00000200: 163f 0abf aee4 333e 27ba 843f ba64 063d
00000210: 556c 10bc 81c5 22bd 0664 3a3e 47d1 103f
00000220: 8973 583d 2d47 083e ef03 3cc0 54fb cb3d
00000230: 0bdc cd3d 71a6 cf3d 9dfc aa3d 1219 34bd
00000240: 549c 803b 93d6 f73d c8ae d5bc 6d51 113e
00000250: 9bb6 4f3d 62ad bc3d 07c3 43be 493b 8c3d
00000260: 83c6 1f3e e17c 26c0 e2e7 9b3d df10 fa3c
00000270: 983a 9b3d d566 313f 917a bf3d ea7a 0b3e
00000280: e972 053e da01 de3d 4d69 903d 960f b8bc
00000290: b82a 693c c4de bf3d c452 00bd a088 053e
000002a0: ed45 7d3c 6775 043c 6689 e03c 642e c23d
000002b0: e293 553d ff2f 643d 4096 94bc b75f debc
000002c0: aa9d bf3d 754f 1bbd 9477 b7bf 7228 943c
000002d0: 49b4 ac3c c320 a7bd 501d 56be 26ad 9abe
000002e0: 55ed fd3d 1247 f23d 5015 073e 56f3 043e
000002f0: 0248 c23b c06b 893b 4f70 f13d 24dc eabb
00000300: 6d13 3c3e 9106 cc3c 6c80 f73c 2b3e 483e
00000310: d54a 64bd 7661 a3bc 12db be3e a648 e03c
00000320: 15f4 a1bd a274 a4bc 3587 ad3d 4f4e 5b3f
00000330: cd75 dfbb b2ad fe3d 99e8 9e3d a8bb bd3d
00000340: e243 cebc 9315 9abd d456 ab3d e2c3 e73e
00000350: ec27 223d 0140 24be f027 a73c ee77 163e
00000360: b083 14bf 29ab a1bf 904a b3bb eff4 673d
00000370: 2fd0 3ebe 8911 92bd 8c08 8fbc c797 953d
00000380: fe19 b83c ebe5 253e 0612 023e 1261 d43e
00000390: f7e3 ee3d 3b44 213d ebba 57bd 235c 263d
000003a0: dbca 8e3d 57f3 0e3e 0ede 353d f790 193e
000003b0: 3db8 db3d c2f1 ea3d 7db4 403e e336 983d
000003c0: ac43 0e3e bdfa cabf afb9 5c3e c491 0fbd
000003d0: 5ad9 303e 3290 733e 7ac6 b33e f20c 8bbf
000003e0: 4991 083e 74cd ad3d 13de 49bb 4f62 463c
000003f0: 895d 8ebe ad8d 633e 7131 d13c 9cfa 403e
-0.33777076 0.19981746 -0.14011703 0.098242894 -0.00904622 -0.04919196 0.15644859 -0.043473296
0.1322641 3.4587817 -0.45020726 0.4066964 0.041697357 0.15116218 0.04904527 -0.0663705
0.059266247 0.21215095 0.005501624 0.13190185 0.075836085 -0.24098213 2.6976748 0.11215888
-0.0044802423 0.052470148 -0.038086142 0.045301717 0.10633962 -0.09481254 0.09356972 0.033305068
0.1276248 -0.13203515 -0.026996104 0.0031948364 0.09388951 -0.014040341 -0.0022866048 -0.0048489906
-0.017347015 0.00657329 0.10206789 0.07683628 -0.018023137 0.06418315 0.10969577 0.12099087
0.15214711 -0.014930132 -0.11377952 -0.062170323 -2.3524709 -0.059831943 0.04029887 -2.3119729
-1.5004286 0.13654497 -0.013537317 -0.008297616 -0.04491576 0.10511906 0.08001494 -0.06350275
0.1419456 -0.037887346 0.17889121 0.15723345 0.17497571 0.13439406 -1.7042428 -0.06101082
0.010898439 0.17415729 -0.18273588 0.5671063 0.060672496 0.022436716 0.120298915 0.016410114
-0.08101132 -0.19768453 0.14424337 0.22559075 0.05376499 -0.20443538 -0.2264196 0.078491375
0.11108481 0.03734504 0.016380565 -0.08488262 0.088224255 -0.0044893557 0.029008375 0.065228604
0.056637798 0.07829165 0.18600835 0.4731383 0.06427255 0.0012356086 -0.33982924 0.07462522
0.06399295 0.05221209 0.18589118 0.16384722 0.1496809 0.24231622 0.14087616 -0.024231182
0.13611524 0.0214807 -1.8233445 -0.033340417 0.0018746655 0.007561122 -0.26234707 0.36585483
0.15695517 -0.059114736 0.32243747 -0.037107807 -1.9524213 0.36005652 0.028108194 0.14643769
-0.5400251 0.17567703 1.0369309 0.032810904 -0.008814891 -0.039739136 0.18202218 0.5656933
0.052844558 0.13308401 -2.93774 0.099600464 0.100517355 0.10139168 0.083489634 -0.04396922
0.0039248858 0.12101474 -0.026084319 0.14191218 0.050711256 0.09212758 -0.19117366 0.06847245
0.1560307 -2.601372 0.076125875 0.030525623 0.07579535 0.69297534 0.093495496 0.13621107
0.13032116 0.10840197 0.070513345 -0.02246837 0.014231376 0.09368661 -0.03132893 0.130404
0.015458566 0.0080846315 0.027409267 0.094815046 0.052142985 0.055709835 -0.018138051 -0.02714525
0.09356244 -0.037917573 -1.4333367 0.018085692 0.02108206 -0.08160546 -0.2090962 -0.30210227
0.12398783 0.11829962 0.13191724 0.1298345 0.005928994 0.004193753 0.11788999 -0.007167356
0.18366785 0.024905475 0.030212604 0.19554965 -0.055735428 -0.019943934 0.37276512 0.027378391
-0.07907883 -0.020075146 0.08473054 0.85666364 -0.006819463 0.124354735 0.07759208 0.09264308
-0.025178853 -0.07523646 0.083661705 0.45266634 0.039588854 -0.1604004 0.020404786 0.14694187
-0.5801344 -1.2630359 -0.005471535 0.05663007 -0.18634103 -0.07132251 -0.01746013 0.0730434
0.022473332 0.16200988 0.12702188 0.4148031 0.116645746 0.03937171 -0.052668493 0.040615212
0.06972285 0.13960014 0.04440122 0.14996706 0.107285 0.11471893 0.18818851 0.07432344
0.13893002 -1.5857769 0.21555208 -0.035051122 0.17270413 0.23785475 0.35112363 -1.0863326
0.13336672 0.08486453 -0.0030802533 0.0121083995 -0.27805737 0.22222014 0.02553627 0.188456

net.4.bias f4 [5]
00000000: b6a8 403e dea6 1e3e 926f c03d 634e 703e
00000010: c522 463e
0.18814358 0.15493342 0.0939628 0.23467402 0.19349201
